models/benign_weights/final_model.pt (torch, 292157 bytes, 14 tensors)

layer1.weight f4 [64, 892]
-0.0026933819 -0.043371215 -0.080996946 -0.070607975 0.010785721 -0.08123709 -0.016973259 -0.077159196
-0.038053326 -0.01596306 -0.07299135 -0.07499379 -0.05238007 -0.015776332 -0.018308194 0.026953539
-0.06879257 -0.00978893 0.020788606 -0.01990921 0.062814675 0.065579064 -0.022413177 0.0019793527
-0.02597571 -0.020846823 0.08977132 -0.06191259 -0.06601384 0.0558748 -0.07126955 -0.03290063
0.0012821899 -0.0633923 0.038455702 -0.07098535 0.026740655 0.040624704 0.07391673 -0.0243001
0.0012795785 0.000588314 0.05327314 -0.053986575 0.0038979757 -0.04159659 0.033119235 0.05999273
-0.048721362 0.07545757 -0.0101326555 0.04804627 -0.0088229235 0.11195086 -0.066692404 0.059406426
0.0624197 0.047056347 0.023063198 -0.03165667 -0.021939991 0.0010570884 -0.021632316 0.039091818
-0.09448316 0.0007049248 0.0133003965 0.03096246 0.01253785 0.08247513 0.03966096 0.004745126
-0.023612551 -0.04129945 0.025167413 0.05825759 0.013863021 -0.063012525 0.0037909837 0.0026326675
-0.07853249 0.07153807 -0.019393489 -0.037789784 0.021994893 -0.034212373 -0.105190806 -0.013767276
0.014317751 -0.022234557 -0.031734273 0.055792186 -0.0019282401 0.06457023 0.09511793 -0.0028270863
0.008459264 -0.05686389 -0.08748984 -0.031599287 -0.041873187 0.05304167 -0.071625344 0.057283267
0.029322373 -0.020682264 0.09047954 -0.00326417 0.032557454 0.016632196 -0.031293776 0.032328293
-0.023718322 -0.0021835868 -0.012220131 0.024801636 0.0049150176 0.070344605 -0.06164129 0.06005734
0.02835042 0.04338802 0.015353323 -0.03635048 -0.034908414 0.048342496 -0.030871844 -0.061189454
-0.064021505 0.053360578 0.07457703 -0.031814575 0.029389298 0.046538495 0.014280726 -0.069555774
0.03943854 0.0029440876 -0.0010736445 -0.0565179 -4.6959e-05 0.050537996 -0.028655853 -0.09568724
0.044372536 -0.025036143 0.010398658 0.01457873 0.072388954 0.013666427 -0.057515334 -0.05114781
-0.017723693 0.0016448312 0.026763236 0.07341945 -0.029772516 0.020171352 0.03384487 -0.022310596
-0.0102477465 0.009711616 -0.076810345 0.032897573 0.059583925 -0.034210827 0.053520273 -0.048059076
-0.046616517 -0.018783327 0.02619782 0.021019522 0.06378455 0.07398808 0.004274439 0.063482255
-0.011822526 0.071967885 -0.048872598 -0.0063540787 -0.038556527 -0.048917927 -0.047500197 -0.043335497
0.0614268 -0.09736065 0.03951309 -0.082367845 -0.079046376 -0.035842996 0.058054596 -0.039928667
0.06630905 0.06333436 -0.09057859 0.07106428 -0.05832306 0.06288434 -0.0011584801 0.036379516
-0.009330904 0.02514825 0.030476183 0.07013259 0.07566187 0.009059921 0.07694827 -0.019324262
0.013175733 -0.034297943 0.06355359 0.03598209 0.015692884 0.04510517 -0.032822996 0.049652122
0.040287703 -0.019923013 -0.06500161 -0.02599551 -0.058551714 0.008400507 -0.005168991 0.04407531
0.07304343 -0.05632609 0.07116505 -0.03797459 0.046003804 0.05791363 0.050470863 -0.04579376
0.0143699795 -0.07418847 0.022182202 -0.0659975 0.054863334 0.04083894 -0.051477794 0.029023029
0.04045486 -0.08026228 0.042168207 -0.076504216 0.064319365 -0.024632972 -0.06379035 0.028698698
0.06175527 -0.024512928 -0.07183015 0.032955118 -0.026372645 0.029301666 -0.032596696 -0.013876282
00000000: 7383 30bb 04a6 31bd bae1 a5bd ea9a 90bd
00000010: 98b6 303c a25f a6bd 810b 8bbc a405 9ebd
00000020: cedd 1bbd f7c4 82bc 7d7c 95bd 5896 99bd
00000030: 7c8c 56bd 5e3d 81bc 11fb 95bc abcd dc3c
00000040: 1ee3 8cbd c061 20bc de4c aa3c a418 a3bc
00000050: fba4 803d 514e 863d d79b b7bc 07b8 013b
00000060: 03cb d4bc f5c6 aabc 07da b73d 0e98 7dbd
00000070: 4432 87bd f9dc 643d c5f5 91bd d0c2 06bd
00000080: 270f a83a d2d3 81bd ba83 1d3d c460 91bd
00000090: 380f db3c 1766 263d a861 973d 0111 c7bc
000000a0: 88b7 a73a 1639 1a3a f034 5a3d 0721 5dbd
000000b0: 2e75 7f3b 3061 2abd 09a8 073d f0ba 753d
000000c0: 0d90 47bd 8089 9a3d 7003 26bc 2acc 443d
000000d0: 068e 10bc 7e46 e53d 0796 88bd 2754 733d
000000e0: cdab 7f3d 28be 403d 08ef bc3c 6daa 01bd
000000f0: 7fbb b3bc 008e 8a3a 4136 b1bc be1e 203d
00000100: 6380 c1bd b4ca 383a e8e9 593c fca4 fd3c
00000110: 8e6b 4d3c b9e8 a83d 8873 223d 007d 9b3b
00000120: 1c6f c1bc 9d29 29bd e42b ce3c 839f 6e3d
00000130: b921 633c b60c 81bd 2772 783b d588 2c3b
00000140: a4d5 a0bd 8d82 923d 18df 9ebc 76c9 1abd
00000150: a22e b43c 4622 0cbd 476e d7bd 2490 61bc
00000160: 0095 6a3c 3f25 b6bc ccfb 01bd 5986 643d
00000170: 00bd fcba 663d 843d 30cd c23d a346 39bb
00000180: ba98 0a3c 1cea 68bd e02d b3bd 416e 01bd
00000190: 3883 2bbd 3942 593d 4fb0 92bd dca1 6a3d
000001a0: 7935 f03c da6d a9bc 564d b93d afeb 55bb
000001b0: f75a 053d 3e40 883c e72d 00bd ac6a 043d
000001c0: ed4c c2bc 821a 0fbb f236 48bc cd2c cb3c
000001d0: 280e a13b d510 903d 947b 7cbd affe 753d
000001e0: 243f e83c a3b7 313d 818c 7b3c 3ee4 14bd
000001f0: 20fc 0ebd c802 463d f3e6 fcbc cba1 7abd
00000200: b51d 83bd 9f90 5a3d d8bb 983d 0050 02bd
00000210: d3c1 f03c 269f 3e3d b5f9 693c 4273 8ebd
00000220: 4e8a 213d 98f1 403b 88b9 8cba 507f 67bd
00000230: d8f5 44b8 ee00 4f3d aebf eabc acf7 c3bd
00000240: fabf 353d 9918 cdbc 225f 2a3c a0db 6e3c
00000250: a940 943d 26e9 5f3c 3395 6bbd 5e80 51bd
00000260: 4731 91bc 6097 d73a 933e db3c f05c 963d
00000270: 7ee5 f3bc 643e a53c eba0 0a3d b6c4 b6bc
00000280: 2ae6 27bc 781d 1f3c be4e 9dbd 9bbf 063d
00000290: 460e 743d a720 0cbd 1338 5b3d 98d9 44bd
000002a0: f6f0 3ebd 7edf 99bc d09c d63c 2231 ac3c
000002b0: 79a1 823d 1087 973d 9810 8c3b fc02 823d
000002c0: 45b3 41bc e663 933d a22e 48bd e035 d0bb
000002d0: 73ed 1dbd 2a5e 48bd 918f 42bd 9080 31bd
000002e0: ab9a 7b3d 0565 c7bd 7ad8 213d 79b0 a8bd
000002f0: 11e3 a1bd 1bd0 12bd a8ca 6d3d 3e8c 23bd
00000300: 0acd 873d 72b5 813d 4581 b9bd 268a 913d
00000310: 29e4 6ebd 81c9 803d 24d8 97ba b002 153d
00000320: a6e0 18bc b403 ce3c 30a9 f93c ada1 8f3d
00000330: 9cf4 9a3d 1070 143c 0e97 9d3d ea4d 9ebc
00000340: 08df 573c 007c 0cbd 6228 823d f561 133d
00000350: 5d8e 803c 33c0 383d 6871 06bd 0660 4b3d
00000360: b804 253d 9635 a3bc 901f 85bd 89f4 d4bc
00000370: ecd3 6fbd 48a2 093c a460 a9bb 5088 343d
00000380: cb97 953d 30b6 66bd fbbe 913d 3e8b 1bbd
00000390: 7c6e 3c3d d836 6d3d 89ba 4e3d 3d92 3bbd
000003a0: 1070 6b3c 20f0 97bd 73b7 b53c b329 87bd
000003b0: 60b8 603d bb46 273d 61da 52bd b4c1 ed3c
000003c0: ffb3 253d 8d60 a4bd 92b8 2c3d 3eae 9cbd
000003d0: dfb9 833d 16cb c9bc 84a4 82bd 8819 eb3c
000003e0: 18f3 7c3d 56cf c8bc b01b 93bd f2fb 063d
000003f0: 720b d8bc 0c0a f03c 1d84 05bd 5859 63bc

layer1.bias f4 [64]
-0.002329758 -0.0024922383 -0.0019864598 0.0030326697 0.003499682 0.00361255 0.003630591 -0.001565869
-0.0018913959 -0.001111006 -0.00061911554 -0.0029018892 0.0065525314 -0.0030630422 0.0022723284 -0.0009304565
-0.0064485837 -0.0013813211 -0.0038865285 0.0053999075 0.0024270664 -0.0038207653 -0.0008262611 -0.0032258667
-0.0019739433 0.0051644957 -0.0046725487 0.0014268429 -0.0038619232 -0.008394142 0.0021341396 -0.0013997433
0.0036806252 0.0029677097 -0.0013581656 0.0017689375 -0.0015562178 -0.005540808 0.0062611997 -0.00020257822
0.00068538915 0.0052239816 0.0031258126 -0.0024965273 0.0015049349 -0.0016116503 -0.00024438353 0.0050641154
0.009626532 -0.008508131 -0.0024594823 -0.0004895244 -0.0019687354 0.0031608478 0.0016869828 0.0040769586
0.0008677206 -0.0016844164 -0.0039608236 0.0016038435 0.003990464 -0.0077780667 0.00097196735 0.0029266085
00000000: daae 18bb d254 23bb 442f 02bb c1bf 463b
00000010: ec5a 653b 88c0 6c3b 36ef 6d3b d83d cdba
00000020: b7e8 f7ba 2d9f 91ba 244c 22ba 9f2d 3ebb
00000030: 9eb6 d63b 52bd 48bb 58eb 143b e1e9 73ba
00000040: a44e d3bb 720d b5ba 21b5 7ebb b5f1 b03b
00000050: 6b0f 1f3b ce65 7abb 7299 58ba 1069 53bb
00000060: 465d 01bb ee3a a93b 2e1c 99bb e704 bb3a
00000070: 5218 7dbb 9587 09bc ecdc 0b3b 9777 b7ba
00000080: a536 713b e87d 423b 7a04 b2ba b1db e73a
00000090: 01fa cbba ab8f b5bb c02a cd3b 2d6b 54b9
000000a0: b0ab 333a ef2d ab3b 6fda 4c3b c79c 23bb
000000b0: 3c41 c53a 033e d3ba 9a20 80b9 e1f0 a53b
000000c0: 9ab8 1d3c b065 0bbc 442f 21bb 6d53 00ba
000000d0: e605 01bb 3a26 4f3b c01d dd3a 0298 853b
000000e0: be77 633a a3c7 dcba ccc9 81bb 0f38 d23a
000000f0: 70c2 823b 27df febb a0cb 7e3a 58cc 3f3b

layer2.weight f4 [32, 64]
-0.13490395 0.00902717 0.076277725 0.08041522 -0.070694804 0.04180113 -0.24861282 -0.16941264
-0.13342714 0.16135396 -0.14704606 -0.18429418 0.017934652 0.12734121 0.07617662 0.28383514
-0.016586926 -0.20354949 0.25103343 -0.1111285 0.054228578 0.028642764 0.24469882 -0.18421538
0.15179735 0.22700326 0.12674557 -0.06400248 0.2926041 0.105301924 -0.08846153 -0.17273027
0.015651776 0.035011288 0.0670336 -0.08793548 0.04076708 0.076470695 0.124996945 -0.061426185
0.047241036 -0.1933719 0.07187718 -0.15436246 0.004861518 0.14581367 -0.09829239 -0.014871798
0.022964474 0.03901422 -0.023678888 -0.12218939 -0.0022137677 -0.20792691 -0.023776904 0.12225137
0.19321765 -0.027966335 0.18605486 0.08821332 0.074567504 0.00016033517 0.034969606 0.019399602
0.2317404 -0.03546274 -0.012442495 -0.17319524 -0.20148559 0.07345573 -0.04550469 -0.039684944
-0.2700486 -0.020296242 -0.026972348 0.17581408 0.063083544 0.15347494 -0.016555011 -0.19485158
0.21394974 0.021700999 0.04243895 0.050369244 0.15083216 -0.08990516 -0.044438317 -0.040595498
-0.20663628 -0.054793242 0.1139976 0.04086705 0.088251755 0.24805771 -0.3590363 -0.14048408
-0.23103972 -0.09658925 0.18693466 -0.10738762 -0.13632528 -0.18526436 -0.2649303 0.119166955
-0.16815656 0.072691195 -0.13272017 0.11682505 0.058816914 0.02767186 -0.11475404 -0.055912666
0.1171213 -0.1029562 0.23598838 -0.063474886 0.1528085 0.18247667 0.034908928 0.03981516
-0.19382614 0.032666244 -0.27630273 0.14588495 -0.009173964 0.14992954 0.12150783 0.20347849
-0.14080718 0.1581942 0.15370564 0.15102111 0.22782037 -0.023871178 -0.17146747 0.20358337
-0.002136919 0.14015973 -0.021600332 -0.16300866 -0.14230345 0.09894204 -0.22870253 0.16924179
0.046995077 0.1580967 -0.061729815 0.12242337 0.16265972 0.25344983 0.010177937 0.0056886007
-0.016556757 -0.039950904 0.0029047467 -0.039050616 -0.030719029 -0.2842578 0.17041679 0.13368362
0.07918101 -0.0084700715 -0.16863002 -0.31494287 0.17244379 -0.0825817 0.08132439 -0.15559946
0.06451019 0.097092845 -0.081174605 0.115981124 0.053859577 -0.2943275 0.13300315 -0.17323855
-0.1326387 -0.19168496 -0.24966434 0.1478242 0.12857452 -0.1737134 0.014999883 0.12514244
-0.13524841 -0.06439895 0.08589687 0.062492047 -0.13367242 -0.27058616 -0.119584106 0.1058887
-0.1000656 -0.12462813 -0.036716375 0.12919286 0.111143954 -0.07068365 -0.23428889 0.14310093
0.024312047 0.15827438 -0.11486084 -0.12088637 0.041694276 0.05008629 -0.1401242 0.19485639
0.104686506 0.106685944 0.07616541 -0.04083171 -0.19066972 -0.21888211 -0.061711356 0.1738318
-0.1407351 0.15639563 -0.035367317 0.29231447 0.08484159 -0.12870148 0.07593415 0.26415634
-0.04137504 -0.11142081 -0.20900333 0.1776733 -0.095235445 0.061022222 -0.120201066 -0.07784277
0.27189255 0.18339178 -0.22540821 -0.1575166 -0.12580846 -0.18547896 0.23033439 -0.13221657
0.09843119 0.23491731 -0.04362433 0.10039358 0.14718054 0.058394417 -0.012704125 0.048882324
0.2037085 -0.07734064 -0.12496966 -0.19279318 -0.1973747 -0.16199337 -0.17737709 -0.005671122
00000000: 4324 0abe b2e6 133c 7f37 9c3d bcb0 a43d
00000010: 70c8 90bd a937 2b3d 5c94 7ebe 827a 2dbe
00000020: 20a1 08be f939 253e 3e93 16be 9db7 3cbe
00000030: b1eb 923c bc65 023e 7d02 9c3d d752 913e
00000040: 4ee1 87bc 476f 50be 7487 803e 5797 e3bd
00000050: c91e 5e3d 3ba4 ea3c 5492 7a3e f5a2 3cbe
00000060: c470 1b3e 8b73 683e 97c9 013e bb13 83bd
00000070: 34d0 953e 89a8 d73d 522b b5bd 34e0 30be
00000080: 2738 803c ff67 0f3d e948 893d 8417 b4bd
00000090: 62fb 263d ab9c 9c3d 66fe ff3d 069a 7bbd
000000a0: d17f 413d 4903 46be 5834 933d 3111 1ebe
000000b0: 5e4d 9f3b 2e50 153e 854d c9bd d8a8 73bc
000000c0: fe1f bc3c 60cd 1f3d 3afa c1bc 6e3e fabd
000000d0: dc14 11bb cbea 54be c8c7 c2bc ed5e fa3d
000000e0: d9da 453e a819 e5bc 2a85 3e3e 2fa9 b43d
000000f0: d9b6 983d a51f 2839 4a3c 0f3d eaeb 9e3c
00000100: 5b4d 6d3e 6141 11bd 9bdb 4bbc 185a 31be
00000110: 3d52 4ebe f56f 963d 2063 3abd ae8c 22bd
00000120: cf43 8abe 4e44 a6bc 1df5 dcbc 9b08 343e
00000130: f231 813d 8928 1d3e 609e 87bc 2c87 47be
00000140: a415 5b3e 4bc6 b13c 77d4 2d3d fb4f 4e3d
00000150: bf73 1a3e 3220 b8bd f404 36bd 7747 26bd
00000160: 7698 53be e16e 60bd 9377 e93d 3564 273d
00000170: 56bd b43d d702 7e3e 9bd3 b7be 0fdb 0fbe
00000180: ad95 6cbe 96d0 c5bd cd6b 3f3e 0aee dbbd
00000190: db98 0bbe f1b5 3dbe f2a4 87be ce0d f43d
000001a0: 3c31 2cbe 1fdf 943d cce7 07be f941 ef3d
000001b0: 01ea 703d 19b0 e23c 2b04 ebbd ae04 65bd
000001c0: 4bdd ef3d b3da d2bd f0a6 713e 1fff 81bd
000001d0: d579 1c3e 2adb 3a3e aafc 0e3d 3915 233d
000001e0: 5c7a 46be 0acd 053d 8d77 8dbe dd62 153e
000001f0: 654e 16bc 2187 193e 19d9 f83d aa5c 503e
00000200: c22f 10be a9fd 213e 0365 1d3e 47a5 1a3e
00000210: be49 693e 7d8d c3bc 2b95 2fbe 2978 503e
00000220: 8d0b 0cbb 0886 0f3e 2ef3 b0bc beeb 26be
00000230: ffb7 11be 20a2 ca3d ff30 6abe b84d 2d3e
00000240: e97d 403d 1ae4 213e 67d8 7cbd 1bb9 fa3d
00000250: 4590 263e 2dc4 813e 5dc1 263c 7167 ba3b
00000260: 09a2 87bc 8fa3 23bd 905d 3e3b 8af3 1fbd
00000270: 79a6 fbbc 3d8a 91be bd81 2e3e 5ce4 083e
00000280: a729 a23d 0ec6 0abc 59ad 2cbe 3140 a1be
00000290: 1b95 303e 9820 a9bd 678d a63d 7755 1fbe
000002a0: eb1d 843d 9dd8 c63d df3e a6bd 8387 ed3d
000002b0: dc9b 5c3d 18b2 96be fa31 083e 7265 31be
000002c0: 70d2 07be 1049 44be 02a8 7fbe 3a5f 173e
000002d0: 0aa9 033e ede1 31be 12c2 753c 5725 003e
000002e0: 8f7e 0abe 99e3 83bd b3ea af3d a9f7 7f3d
000002f0: 6ce1 08be 458a 8abe 83e8 f4bd 2ddc d83d
00000300: 31ef ccbd 083d ffbd e963 16bd 224b 043e
00000310: 719f e33d 97c2 90bd 6de9 6fbe 0d89 123e
00000320: 0f2a c73c ae12 223e 293c ebbd 4693 f7bd
00000330: 9ec7 2a3d 4827 4d3d b87c 0fbe 6f88 473e
00000340: e165 d63d 297e da3d 9cfc 9b3d 273f 27bd
00000350: ec3e 43be a222 60be 0cc5 7cbd f700 323e
00000360: dd1c 10be 2d26 203e 52dd 10bd 3eaa 953e
00000370: 6dc1 ad3d 52ca 03be 5d83 9b3d 803f 873e
00000380: e078 29bd 9830 e4bd f804 56be fdef 353e
00000390: cd0a c3bd 70f2 793d fa2b f6bd 086c 9fbd
000003a0: 8035 8b3e 0ecb 3b3e 69d1 66be 084c 21be
000003b0: efd3 00be 32ee 3dbe c7dc 6b3e c863 07be
000003c0: 4b96 c93d 2a8e 703e 6daf 32bd 269b cd3d
000003d0: 7fb6 163e fc2e 6f3d f624 50bc d538 483d
000003e0: f698 503e c564 9ebd 18f0 ffbd 936b 45be
000003f0: 981c 4abe 97e1 25be 57a2 35be d2d4 b9bb

layer2.bias f4 [32]
-0.005011641 0.0018208906 0.0013775239 0.00152882 0.0010162748 0.0018231818 0.00049292523 0.0026020857
-0.0008633404 -0.0008523354 -0.0010785372 0.0004961254 0.0006117239 -0.00016117563 0.0015777524 -0.00012754221
0.000828205 0.00015512972 -0.0055310605 0.0011991264 0.0017025069 -0.00063216547 0.002770133 0.0015830661
0.0007881332 -0.0011575941 -0.00036165392 0.0006931623 -4.2831816e-05 0.00038761803 0.00037877142 -0.0008079368
00000000: b138 a4bb f3aa ee3a 088e b43a b062 c83a
00000010: 8634 853a d4f7 ee3a a737 013a c187 2a3b
00000020: cb51 62ba 436f 5fba b45d 8dba 690e 023a
00000030: 195c 203a 4101 29b9 96cc ce3a dabc 05b9
00000040: e61b 593a 51aa 2239 e63d b5bb 012c 9d3a
00000050: a726 df3a e8b7 25ba 1f8b 353b e27e cf3a
00000060: b99a 4e3a 6aba 97ba 5e9c bdb9 56b5 353a
00000070: 50a6 33b8 3639 cb39 d795 c639 b9cb 53ba

layer3.weight f4 [2, 32]
-0.15180509 0.5076441 0.52303433 -0.13953836 -0.19380352 -0.066506 -0.09912988 0.036455285
0.24576342 -0.14399303 0.33071095 0.1510022 -0.1329402 -0.1917911 0.6270045 0.25853467
-0.15374193 -0.13426381 0.40580916 0.47929573 0.4922328 0.3214737 0.6213898 0.4991691
-0.1883858 0.17763431 0.076037176 0.08916673 0.011559649 0.012841187 -0.037001766 -0.14240572
0.058446653 -0.027911229 -0.09988008 -0.15194035 -0.19976273 0.14921348 -0.5116166 -0.051216133
0.055048168 0.01906488 -0.303121 -0.2000668 0.008925586 -0.53085613 -0.5762898 0.1505253
-0.026446681 -0.05956575 -0.6064473 -0.45150232 -0.6376889 -0.03907735 -0.44477853 -0.23198599
-0.29194778 -0.40284878 -0.50468063 -0.5063366 0.058972772 0.13388914 -0.5804675 0.0080717765
00000000: cb72 1bbe f7f4 013f 94e5 053f 25e3 0ebe
00000010: 6e74 46be 4c34 88bd 9b04 cbbd 2352 153d
00000020: 68a9 7b3e e972 13be f252 a93e 52a0 1a3e
00000030: 7a21 08be e364 44be 5e83 203f a85e 843e
00000040: 866e 1dbe 747c 09be 38c6 cf3e 4066 f53e
00000050: f005 fc3e 3398 a43e 6713 1f3f 1893 ff3e
00000060: 35e8 40be c5e5 353e 61b9 9b3d 0c9d b63d
00000070: af64 3d3c d863 523c 2a8f 17bd ced2 11be
00000080: c265 6f3d 17a6 e4bc ed8d ccbd 4096 1bbe
00000090: 9a8e 4cbe 6bcb 183e 4ef9 02bf 02c8 51bd
000000a0: 307a 613d f42d 9c3c ad32 9bbe 50de 4cbe
000000b0: 9f3c 123c 30e6 07bf ba87 13bf 4e23 1a3e
000000c0: b6a6 d8bc 37fb 73bd 2140 1bbf 502b e7be
000000d0: 943f 23bf 920f 20bd 03ba e3be bc8d 6dbe
000000e0: 2e7a 95be 3242 cebe c032 01bf 479f 01bf
000000f0: 6f8d 713d 3c1a 093e 8599 14bf 7c3f 043c

layer3.bias f4 [2]
0.28765577 -0.28765577
00000000: 9e47 933e 9e47 93be

batch_norm1.weight f4 [64]
0.9857559 0.8924725 1.0194216 0.92905235 0.98214585 0.99671793 0.9716528 1.0033342
0.9908619 1.0712377 0.95430785 0.9942463 1.0156984 1.0275277 0.998387 1.0889283
1.0087273 0.97593886 1.0209941 0.9598085 0.97584385 1.0172642 1.0120852 1.0227312
0.9707969 0.9825128 1.0335499 1.025098 0.99736124 1.0098199 1.0322987 0.9800654
0.9887526 1.0238434 1.0124394 1.0033592 0.990009 1.0017679 0.97990656 1.0333451
1.0093513 0.969805 0.97097695 0.963704 0.96614206 1.0427276 0.95079684 1.0027994
1.0047855 0.9760877 1.06283 0.9790103 0.97973585 0.94473094 1.0319564 1.001575
1.0621299 0.9282959 0.98190767 0.9763599 0.9906848 1.0060674 0.94629943 1.1170305
00000000: 805a 7c3f 1479 643f 687c 823f 60d6 6d3f
00000010: e96d 7b3f e828 7f3f 3dbe 783f 416d 803f
00000020: 20a9 7d3f 511e 893f 854d 743f ed86 7e3f
00000030: 6802 823f 0786 833f 4a96 7f3f 0162 8b3f
00000040: fa1d 813f 21d7 793f efaf 823f 03b6 753f
00000050: e7d0 793f b735 823f 028c 813f dbe8 823f
00000060: 2586 783f f585 7b3f 5d4b 843f 6936 833f
00000070: 1153 7f3f c741 813f 5d22 843f 91e5 7a3f
00000080: e41e 7d3f 4d0d 833f 9d97 813f 136e 803f
00000090: 3b71 7d3f ee39 803f 28db 7a3f a744 843f
000000a0: 6c32 813f 2445 783f f291 783f 4eb5 763f
000000b0: 1655 773f 1978 853f 6c67 733f bb5b 803f
000000c0: d09c 803f e2e0 793f d00a 883f 6ba0 7a3f
000000d0: f8cf 7a3f e3d9 713f 2617 843f 9c33 803f
000000e0: dff3 873f cda4 6d3f 4d5e 7b3f b9f2 793f
000000f0: 859d 7d3f d1c6 803f ae40 723f dbfa 8e3f

batch_norm1.bias f4 [64]
-0.0048981356 -0.08770377 -0.012539851 -0.057486277 -0.014844251 0.0026668608 -0.036450267 -0.0017894878
-0.014156917 -0.021466369 -0.032613043 -0.012169462 -0.04474205 0.010468625 -0.007002282 -0.003586115
-0.007453562 -0.039094456 -0.04379667 -0.0051540374 -0.03322939 0.017101262 0.013506774 0.0015613437
-0.026836898 -0.016022429 0.04195348 -0.014920699 -0.0746914 0.0027659088 0.024868332 -0.015556081
-0.009356872 0.014325675 0.011363966 0.027223457 -0.008432678 -0.06796429 -0.034895524 0.010672469
-0.022143798 -0.023974597 -0.021002913 -0.035310417 -4.3762047e-05 0.036954418 -0.03869227 -0.06151561
-0.0026629574 -0.017622307 0.004841736 0.0024405485 -0.010247592 -0.07719699 0.042199943 -0.02851879
-0.0065808306 -0.035224997 0.0067058234 -0.01891818 0.016005218 0.0086071985 -0.019669104 0.09403745
00000000: 8a80 a0bb 099e b3bd f273 4dbc bb76 6bbd
00000010: 4d35 73bc 80c6 2e3b e04c 15bd 3f8d eaba
00000020: 6af2 67bc 3dda afbc 4195 05bd 6c62 47bc
00000030: 7143 37bd 9984 2b3c 6673 e5bb 0705 6bbb
00000040: 033d f4bb 8221 20bd 2364 33bd 33e3 a8bb
00000050: 8a1b 08bd f217 8c3c 844b 5d3c 00a6 cc3a
00000060: 0ed9 dbbc 7841 83bc 6ad7 2b3d f375 74bc
00000070: cef7 98bd 4044 353b acb8 cb3c efde 7ebc
00000080: 914d 19bc 3cb6 6a3c ee2f 3a3c ba03 df3c
00000090: 3729 0abc dd30 8bbd 9cee 0ebd 94db 2e3c
000000a0: e966 b5bc 6066 c4bc 4d0e acbc a8a1 10bd
000000b0: 248d 37b8 845d 173d c97b 1ebd cbf7 7bbd
000000c0: 0385 2ebb a85c 90bc 6da7 9e3b 9cf1 1f3b
000000d0: 84e5 27bc 7519 9ebd d9d9 2c3d 3da0 e9bc
000000e0: 02a4 d7bb 1648 10bd 86bc db3b 4dfa 9abc
000000f0: 601d 833c 3505 0d3c 1a21 a1bc b596 c03d

batch_norm1.running_mean f4 [64]
0.2140989 0.020755513 0.073356405 -0.13563254 0.11773807 -0.040730435 -0.022242 -0.013824208
-0.1077356 0.17757797 0.07675743 0.27395958 0.093230054 0.1698597 -0.119953066 0.03356361
-0.048223186 0.06293836 0.07751264 -0.092473075 -0.19813612 -0.22807801 0.14581193 0.11275438
-0.23474905 -0.122849956 -0.1559522 0.026677933 0.025987538 0.0714322 0.07662722 0.053775437
0.21526207 -0.21991815 -3.5453122e-06 0.09210989 -0.1442868 0.1535281 -0.048773307 -0.008182408
0.19233122 -0.1868247 -0.19936533 -0.06810683 0.033339713 0.04332345 -0.0014374249 0.2308409
0.05998886 0.04054728 0.081685826 -0.15772885 -0.045117445 0.04725083 -0.2406511 0.026149102
0.3222531 0.28781274 0.012159908 -0.016140042 0.13521516 0.15786864 0.1536063 -0.25940058
00000000: be3c 5b3e 7707 aa3c e23b 963d 42e3 0abe
00000010: a820 f13d f5d4 26bd db34 b6bc ee7e 62bc
00000020: 7ba4 dcbd 00d7 353e 0033 9d3d 6e44 8c3e
00000030: 66ef be3d b4ef 2d3e f4a9 f5bd ff79 093d
00000040: ad85 45bd d4e5 803d f2be 9e3d 8662 bdbd
00000050: 32e4 4abe 488d 69be b94f 153e c5eb e63d
00000060: 0e62 70be c298 fbbd efb1 1fbe ae8b da3c
00000070: d1e3 d43c 0c4b 923d bbee 9c3d a243 5c3d
00000080: a96d 5c3e 3932 61be 00ec 6db6 1ca4 bc3d
00000090: ebbf 13be 7836 1d3e 85c6 47bd 820f 06bc
000000a0: 7af2 443e f94e 3fbe 6d26 4cbe 987b 8bbd
000000b0: 398f 083d ee73 313d fa67 bcba 8f61 6c3e
000000c0: e1b6 753d e814 263d e64a a73d ac83 21be
000000d0: 12cd 38bd 168a 413d 3e6d 76be a436 d63c
000000e0: 5cfe a43e 315c 933e 5a3a 473c 1f38 84bc
000000f0: d875 0a3e 51a8 213e f84a 1d3e 27d0 84be

batch_norm1.running_var f4 [64]
0.02392131 0.041793637 0.037485357 0.017869322 0.026831653 0.01734919 0.019909583 0.018987644
0.016960027 0.070948504 0.025443891 0.025117543 0.045846507 0.038607363 0.027267095 0.052325528
0.022868892 0.021857312 0.04769911 0.024255853 0.037991893 0.021437753 0.05161281 0.015699042
0.022942482 0.020886566 0.027665695 0.029686596 0.046406996 0.01474091 0.012842762 0.021799205
0.038324155 0.026907634 0.017733876 0.019683147 0.013189623 0.066574246 0.022995321 0.020457018
0.05251218 0.018532 0.02247123 0.013096865 0.024491878 0.013799866 0.022724187 0.07045778
0.018394189 0.030959634 0.036327053 0.037433427 0.027114974 0.02790282 0.032107037 0.03353485
0.062622 0.024369707 0.022883063 0.019377166 0.040806312 0.014535246 0.022475723 0.0359173
00000000: a0f6 c33c ce2f 2b3d 3f8a 193d af62 923c
00000010: 0ece db3c e31f 8e3c 6c19 a33c fa8b 9b3c
00000020: c1ef 8a3c 734d 913d b56f d03c 4ec3 cd3c
00000030: 8cc9 3b3d c122 1e3d 3e5f df3c 4b53 563d
00000040: 8b57 bb3c 1b0e b33c 2460 433d 36b4 c63c
00000050: 639d 1b3d 3a9e af3c f467 533d 479b 803c
00000060: dff1 bb3c 4e1a ab3c 2ba3 e23c 4e31 f33c
00000070: 4315 3e3d dc83 713c 736a 523c 3f94 b23c
00000080: caf9 1c3d 666d dc3c a246 913c 8d3e a13c
00000090: 4a19 583c 1458 883d af60 bc3c 7a95 a73c
000000a0: 0317 573d 6cd0 973c 9615 b83c 3c94 563c
000000b0: 31a3 c83c d518 623c 1328 ba3c 2b4c 903d
000000c0: 69af 963c 0f9f fd3c adcb 143d cb53 193d
000000d0: 3920 de3c 7494 e43c ab82 033d d75b 093d
000000e0: f73f 803d fba2 c73c 4375 bb3c ddbc 9e3c
000000f0: 8524 273d 3e25 6e3c 021f b83c 051e 133d

batch_norm2.weight f4 [32]
0.8049727 1.288408 1.2869774 0.82574713 0.80791646 0.79803884 1.1699977 0.86230874
1.0053339 0.8000016 1.2778146 1.1222132 0.79415077 1.1179142 1.195168 0.9265451
0.7937223 0.7992447 1.2624458 1.2356178 1.2657833 1.123891 1.2350554 1.2362128
0.9231831 1.2909282 1.3014781 1.2918581 0.8072139 0.7991859 1.2470803 0.8041019
00000000: b112 4e3f 8eea a43f adbb a43f 2a64 533f
00000010: 9dd3 4e3f 464c 4c3f 7cc2 953f 44c0 5c3f
00000020: c8ae 803f e8cc 4c3f 6e8f a33f afa4 8f3f
00000030: 774d 4b3f d017 8f3f 44fb 983f 0f32 6d3f
00000040: 6231 4b3f 4d9b 4c3f d397 a13f b928 9e3f
00000050: 3005 a23f a9db 8f3f 4c16 9e3f 393c 9e3f
00000060: ba55 6c3f 233d a53f d696 a63f 9b5b a53f
00000070: 92a5 4e3f 7297 4c3f 54a0 9f3f 9fd9 4d3f

batch_norm2.bias f4 [32]
-0.20040536 0.3317363 0.3168126 -0.17673546 -0.18427302 -0.20835117 0.20711641 -0.1457472
0.035417918 -0.21688336 0.30804622 0.15357168 -0.2174205 0.17413403 0.24333929 -0.03583655
-0.21209271 -0.2001806 0.26746923 0.2718211 0.26949936 0.1506987 0.27029756 0.2778558
-0.055045195 0.32082495 0.32959452 0.31037852 -0.19807726 -0.19771522 0.30057648 -0.20628168
00000000: 1037 4dbe 57d9 a93e 4335 a23e 24fa 34be
00000010: 11b2 3cbe 025a 55be 5316 543e c13e 15be
00000020: 6112 113d ac16 5ebe 3cb8 9d3e e541 1d3e
00000030: 7ba3 5ebe 3150 323e ef2d 793e 59c9 12bd
00000040: d52e 59be 25fc 4cbe baf1 883e 232c 8b3e
00000050: d2fb 893e c350 1a3e 7164 8a3e 1e43 8e3e
00000060: 1277 61bd 2b43 a43e 9dc0 a83e efe9 9e3e
00000070: c4d4 4abe dc75 4abe 29e5 993e 813b 53be

batch_norm2.running_mean f4 [32]
0.27314454 -0.08544546 -0.14582413 -0.14111188 0.6356417 0.84160405 0.30076408 -0.591522
-0.11442455 0.74697846 -0.9111956 0.3848307 0.24677098 0.37128818 -0.24109015 0.42975688
0.5455066 0.21969627 -0.5625403 -1.1705079 -0.54884726 -0.35963583 0.8940753 0.30728656
0.52706885 -0.7872114 -0.5919527 -0.03157091 -0.06320505 0.4976329 -0.6277133 0.3973559
00000000: 9ad9 8b3e 08fe aebd ec52 15be a27f 10be
00000010: 6ab9 223f 5d73 573f c0fd 993e fc6d 17bf
00000020: 6b57 eabd fb39 3f3f 1d44 69bf 8808 c53e
00000030: 88b1 7c3e 7c19 be3e 56e0 76be 1809 dc3e
00000040: 52a6 0b3f 0ff8 603e a402 10bf 34d3 95bf
00000050: 4181 0cbf 3022 b8be 1ee2 643f aa54 9d3e
00000060: fced 063f b086 49bf 368a 17bf 8050 01bd
00000070: a671 81bd bdc9 fe3e d2b1 20bf 3c72 cb3e

batch_norm2.running_var f4 [32]
1.8877336 0.64784235 1.1427141 1.0906786 2.1401446 2.4622245 0.7304431 2.1512628
0.90594244 1.4258608 0.91336423 1.3877883 1.5586919 0.847283 1.5126498 1.0214086
2.0170777 1.4346673 2.0222218 0.8142578 2.5021238 0.7666741 1.2023798 1.6503978
2.2640607 0.9063365 1.4357295 0.8731833 0.9194204 2.416051 0.7660823 1.9942114
00000000: 41a1 f13f ffd8 253f 7544 923f 5b9b 8b3f
00000010: 21f8 0840 1695 1d40 52fe 3a3f 4aae 0940
00000020: d8eb 673f 9b82 b63f 3dd2 693f 0ca3 b13f
00000030: 3783 c73f 8ae7 583f 829e c13f 84bd 823f
00000040: cd17 0140 2ea3 b73f 156c 0140 3373 503f
00000050: cc22 2040 c144 443f 95e7 993f 3c40 d33f
00000060: 5fe6 1040 ab05 683f fcc5 b73f f188 5f3f
00000070: 235f 6b3f 94a0 1a40 f81d 443f 5242 ff3f
