models/benign_weights/final_model.pt (torch, 292157 bytes, 14 tensors)

layer1.weight f4 [64, 892]
0	0x3da43291	0.08017457
1	0xbd85587f	-0.0651102
2	0x3c9aef6c	0.018912993
3	0x3ce21cce	0.027601626
4	0xbd72c510	-0.059269965
5	0xbd32ace4	-0.043621913
6	0xbda35ba9	-0.07976467
7	0x3beb4360	0.0071796626
8	0xbc6a2757	-0.014291606
9	0xbd154f45	-0.03645255
10	0xbd41e529	-0.047337685
11	0x3db0ef0c	0.086393446
12	0xbc3f520d	-0.011677277
13	0x3a168b51	0.00057428057
14	0x3d10adb0	0.03532189
15	0xbdaa4f98	-0.083159626
16	0x3c99a71a	0.018756438
17	0x3d0dd7b9	0.034629557
18	0xbcfb9033	-0.030708408
19	0x3d7ff645	0.06249072
20	0xbd366c46	-0.04453685
21	0xbda35a35	-0.0797619
22	0x3d8cae44	0.06869176
23	0x3c24024c	0.010010313
24	0x3d879f71	0.06622208
25	0x3d5be2b0	0.053682983
26	0x3cc1818a	0.02362134
27	0x3c0bc7bb	0.008531506
28	0x3d644d9c	0.055738077
29	0x3b1dff41	0.0024108442
30	0x3d9ce124	0.0766013
31	0xbd643348	-0.055712968
32	0xbb6733e2	-0.0035278727
33	0x3cfb616e	0.030686107
34	0xbcd42c4a	-0.025900025
35	0x3c58a1e0	0.013222188
36	0xbd912d89	-0.07088763
37	0x3b47e413	0.0030500933
38	0xbd12aff4	-0.035812333
39	0xbbf3fd0e	-0.007445938
40	0x3c2b6c38	0.010462813
41	0x3d9870bf	0.074433796
42	0xbbd5eb20	-0.006528273
43	0x3dd4cd93	0.10390773
44	0xbbb91fbd	-0.0056495355
45	0xbced6f0d	-0.028983617
46	0xbd00b71e	-0.031424634
47	0x3c1b6856	0.009485325
48	0xbbbce5b3	-0.005764687
49	0xbd80ebca	-0.06294973
50	0xbd8574ad	-0.06516395
51	0xbd9c8d2e	-0.076441154
52	0xbb139352	-0.002251823
53	0xbd9ef5b3	-0.07761707
54	0x3cefef1c	0.02928882
55	0xbd287013	-0.041122507
56	0xbb4be6a0	-0.0031112805
57	0xbd55af67	-0.05216923
58	0x3cb9af5e	0.02266663
59	0x3d881954	0.06645456
60	0x3aa588b4	0.0012629242
61	0xbc204e48	-0.009784289
62	0xbd973ddc	-0.073848456
63	0x3d2c5fea	0.04208366
64	0x3ba2626c	0.0049555805
65	0xbcb46b64	-0.022023864
66	0xbc8928de	-0.01674312
67	0xbd653b89	-0.05596498
68	0x3d13e140	0.036103487
69	0xbd327766	-0.0435709
70	0x3cad2b56	0.021138828
71	0x3c7d74ba	0.015469724
72	0xbd998109	-0.07495315
73	0xbd1f3271	-0.038866464
74	0xbd222b79	-0.03959224
75	0xba3e797a	-0.0007266026
76	0x3cc0ec86	0.023550283
77	0x3d944c12	0.07241072
78	0x3d48393b	0.048882704
79	0xbd3c798e	-0.04601436
80	0xbd020630	-0.031744182
81	0x3d08edbb	0.033429842
82	0x3ce49dd0	0.027907282
83	0xbd91bb3a	-0.07115789
84	0x3da14716	0.07874887
85	0xbc449aff	-0.011999845
86	0xbd1e2fad	-0.038619686
87	0xbc07debc	-0.00829285
88	0x3d89047f	0.06690311
89	0x3dc298f0	0.09501827
90	0x3c470c84	0.01214898
91	0xbd576c32	-0.052593417
92	0x3d5987d8	0.053108066
93	0xbd63d86d	-0.05562632
94	0xbc05e634	-0.0081725605
95	0x3d845398	0.06461257
96	0xbd134e4b	-0.035963338
97	0xbd69d2a1	-0.057085637
98	0x3cfa5dcf	0.03056231
99	0x3ca3664c	0.01994624
100	0xbb58cfaa	-0.0033082762
101	0x3d94980f	0.072555654
102	0x3d5c80d4	0.053833798
103	0x3d9cd862	0.07658459
104	0x3d4863e1	0.048923377
105	0xbd33eb70	-0.043925703
106	0xbb5ffa9d	-0.0034176477
107	0x3d715ad8	0.058924526
108	0xbcaaec01	-0.020864489
109	0xbca9e0a0	-0.020736992
110	0xbdef60a5	-0.11688355
111	0xbc580012	-0.0131836105
112	0x3c8c1b2f	0.017102806
113	0x3d945a83	0.07243826
114	0xbc75d9c9	-0.015005537
115	0x3d97a53f	0.07404565
116	0x3d30a22a	0.0431234
117	0xbcf74b53	-0.030187285
118	0xbd3b601b	-0.04574595
119	0x3d2409b2	0.04004831
120	0xbbf04612	-0.007332572
121	0xbd1861a9	-0.03720251
122	0x3cb1ca2b	0.021702847
123	0xbd40b948	-0.047051698
124	0x3d36870a	0.044562377
125	0xbdc5489d	-0.096329905
126	0xbc6705e9	-0.01410053
127	0xbc0006fd	-0.007814166
128	0xbcccc817	-0.024997754
129	0x3c32ade1	0.010905714
130	0x3da1fe6a	0.07909854
131	0xbd3e82ec	-0.046511576
132	0x3d1f0c6c	0.038830206
133	0xbbdc37a0	-0.006720498
134	0x3caf4994	0.02139739
135	0xbd3a0c11	-0.045421664
136	0x3c9fa3b0	0.019487232
137	0xbd12c7bf	-0.035835024
138	0xbcd82bd3	-0.026388085
139	0xbd62de7b	-0.055387955
140	0x3cac999a	0.021069337
141	0x3d1f3610	0.038869917
142	0xbb2e521c	-0.0026599234
143	0xbd48f8d4	-0.049065426
144	0xbd366fcb	-0.044540208
145	0x3d12540c	0.035724685
146	0x3c48cda6	0.012256062
147	0xbdc4ad2a	-0.09603341
148	0xbd5d0412	-0.05395896
149	0xbd54cece	-0.051955037
150	0x3db6e483	0.08930304
151	0xbceba1ac	-0.028763615
152	0xbd9c3259	-0.076267906
153	0x3d688b6e	0.056773596
154	0x3cdbc3b3	0.026826715
155	0x3c0b7edb	0.008514131
156	0x3c09fa28	0.008421458
157	0x3d0b034e	0.0339387
158	0xbd54798f	-0.05187374
159	0xbd4ae467	-0.049534228
160	0x3d18daab	0.037317913
161	0xbcc2ad32	-0.023764227
162	0xbcab8ae8	-0.02094026
163	0xbd1d9d68	-0.038480192
164	0x3d25e801	0.04050446
165	0x3c41cb08	0.011828192
166	0x3d85fc2a	0.06542237
167	0x3d644906	0.055733703
168	0xbd88af00	-0.066740036
169	0x3d11e09c	0.035614595
170	0xbdccea34	-0.10005608
171	0xbb858b2a	-0.0040754275
172	0x3d56ee70	0.052473485
173	0xbd89b0f5	-0.06723205
174	0xbd9a8dde	-0.0754659
175	0xbdadfdca	-0.08495672
176	0xbc816114	-0.01579336
177	0xbd8cc7b0	-0.06874025
178	0xbd80da67	-0.06291657
179	0x3bb80b30	0.005616568
180	0xbca8b488	-0.020593897
181	0x3d398f51	0.045302693
182	0xbcb9a43b	-0.022661319
183	0x3cadcc3a	0.021215547
184	0x3d0c0d1d	0.034192193
185	0xbd415ae4	-0.04720582
186	0x3cb88cbc	0.022528045
187	0xbd2b09e4	-0.04175748
188	0x3dd3a90e	0.10334979
189	0x3db9c6d4	0.090711266
190	0x3cd50324	0.026002474
191	0xbd33c81b	-0.043892007
192	0x3d4d6950	0.050149262
193	0xbd01404d	-0.031555463
194	0xbd8c1f09	-0.06841857
195	0xbbf81b55	-0.0075716176
196	0xbdc9c0a5	-0.09851197
197	0xbd9cbf35	-0.07653657
198	0xbc9996d2	-0.018748675
199	0xbcf9b876	-0.030483466
200	0x3d4928ed	0.049111295
201	0xbd8a5f34	-0.0675644
202	0x3cdf3fd5	0.027252117
203	0x3c9ffba6	0.019529175
204	0xbc5a9e33	-0.013343382
205	0xbc7b2870	-0.015329465
206	0x3d8762d8	0.0661065
207	0xbbb0de80	-0.005397618
208	0xbc770a90	-0.015078202
209	0x3d268b91	0.040660445
210	0x3cb67ca4	0.02227623
211	0xbd201f53	-0.039092373
212	0x3b8cbe05	0.004295113
213	0xbda2fd14	-0.07958427
214	0xbda9f240	-0.08298159
215	0xbd834204	-0.06409076
216	0x3d23e3b6	0.040012084
217	0x399a2e00	0.00029407442
218	0xbd97396c	-0.07383999
219	0xbd6ab608	-0.057302505
220	0xbd125c3e	-0.0357325
221	0xba6e0700	-0.00090800226
222	0x3c88097b	0.016606083
223	0xbb67c8b3	-0.0035367429
224	0x3a530795	0.0008050141
225	0xbd2ad138	-0.041703433
226	0x3d850d2d	0.06496654
227	0xbccd7d25	-0.025084088
228	0x3d1372d8	0.035998195
229	0xbbe15bc8	-0.0068773963
230	0xbd823047	-0.063568644
231	0xbd8d561e	-0.06901191
232	0xbd924462	-0.07141949
233	0x3d0f9002	0.035049446
234	0xbda828dc	-0.08210918
235	0x3d002932	0.031289287
236	0x3d9d8729	0.076917954
237	0xbd388d0d	-0.04505639
238	0x3d878cec	0.066186756
239	0xbd970104	-0.073732406
240	0x3d6d2928	0.057900578
241	0xbcf3bbb2	-0.029752586
242	0xbd12f243	-0.03587557
243	0x3d800320	0.06250596
244	0x3d489a8f	0.048975524
245	0x3aab45ee	0.0013067105
246	0xbc2fc790	-0.010728732
247	0x3d96ef68	0.07369882
248	0xbd9ecdd0	-0.07754099
249	0x3ce77bbe	0.028257247
250	0x3bbfbff0	0.005851738
251	0x3d2e8f70	0.04261726
252	0xbcc95782	-0.02457786
253	0x3ca0fb5c	0.019651107
254	0x3d51b414	0.051197127
255	0xbd96dc8b	-0.07366284

layer1.bias f4 [64]
0	0xbb890ae4	-0.0041822065
1	0x3aa1e7f2	0.001235245
2	0x3ba449c7	0.0050136778
3	0xbb078727	-0.0020679922
4	0x3a280e46	0.00064108183
5	0xbbd88b0d	-0.006608373
6	0xbbb93bf9	-0.0056529013
7	0x3bde3b99	0.006782007
8	0x3ae2c46f	0.0017300973
9	0xbb17d671	-0.0023168589
10	0xbbd3c1a3	-0.0064622923
11	0xb91c7b9d	-0.00014923369
12	0xbadd6b01	-0.0016892852
13	0x3bdd9c4c	0.006763017
14	0xbc3d635f	-0.011559336
15	0xbb918a01	-0.0044415
16	0xbae7d155	-0.0017686287
17	0xb97af6c6	-0.00023933788
18	0x3b27bffe	0.0025596614
19	0xbbd921ed	-0.0066263587
20	0x39b2d794	0.00034111424
21	0x3bb5ee8c	0.0055521186
22	0xbb71f6b6	-0.0036920733
23	0x3b3ba329	0.0028631187
24	0xbb8366a6	-0.0040100394
25	0x3c18b405	0.009320264
26	0xbb7f8fbc	-0.0038995584
27	0xb98bca1b	-0.00026662726
28	0xbbba8e56	-0.0056932373
29	0x3ab120a5	0.0013513757
30	0xbb8519ef	-0.0040619294
31	0x3b3dc2fc	0.002895533
32	0x3b0e941a	0.0021755756
33	0xbb19c152	-0.0023461175
34	0xbbc2ee70	-0.005948834
35	0xbb07d375	-0.0020725403
36	0x3c3bca58	0.011461817
37	0x3c07c832	0.008287476
38	0xbc331cba	-0.010932142
39	0xba9bb97a	-0.0011880838
40	0xbb7e0af4	-0.0038763853
41	0x3a32a661	0.00068149535
42	0xbba3a450	-0.004993953
43	0x3aba9a58	0.0014236672
44	0xbb6b763a	-0.0035928623
45	0x3bab56c2	0.005228848
46	0x3a9e4688	0.0012075463
47	0xba51340e	-0.0007980474
48	0xbbd06aba	-0.006360379
49	0xba10d889	-0.00055254303
50	0xbad9d22e	-0.0016618425
51	0xba323189	-0.00067975424
52	0xbaf5fa33	-0.0018766582
53	0xbb7b834d	-0.0038377822
54	0x38e4df2e	0.00010913458
55	0xbad3fe2e	-0.0016173774
56	0xbbdc9de2	-0.0067326883
57	0xbb0a97f0	-0.002114769
58	0x3ba396b1	0.004992329
59	0x3be6fb65	0.0070490115
60	0xbac408a7	-0.0014956192
61	0xbb377e68	-0.0027998928
62	0x3a1ddcc9	0.0006021974
63	0xbb753627	-0.003741631

layer2.weight f4 [32, 64]
0	0xbd6fb188	-0.058518916
1	0xbe3caa40	-0.1842432
2	0x3e8770d7	0.26453277
3	0xbe2de372	-0.16981295
4	0x3dd0c6e9	0.10194189
5	0x3ddea2e6	0.10870914
6	0x3e0f796a	0.1401116
7	0x3e11e04a	0.14245716
8	0xbcc44c26	-0.023962092
9	0x3e025eb4	0.12731439
10	0x3ca6ec69	0.020376401
11	0xbd7d12cc	-0.061785504
12	0x3c1625e6	0.009164309
13	0x3c466948	0.012110062
14	0xbe55206d	-0.2081315
15	0xbe565c8e	-0.20933744
16	0xbe9adb75	-0.30245557
17	0x3e1eecbe	0.15519997
18	0xbdb33df6	-0.087520525
19	0x3e366c49	0.17814745
20	0x3dfc197c	0.12309548
21	0x3e1a4a74	0.15067464
22	0x3e224e07	0.15850078
23	0x3db83e73	0.08996286
24	0x3e1bf4c3	0.15230088
25	0x3e4e53dd	0.20149179
26	0xbe83b68f	-0.2572522
27	0xbcee667a	-0.029101599
28	0xbd28cf4b	-0.041213315
29	0xbe5cb782	-0.21554378
30	0xbe54c263	-0.20777278
31	0x3dd4278e	0.10359107
32	0xbe91d3c0	-0.28481865
33	0xbe237b10	-0.15964913
34	0x3d1476c4	0.036246076
35	0x3dedd0c0	0.116120815
36	0xbe0220d2	-0.12707832
37	0x3bbb7a1f	0.005721345
38	0xbe5ccc19	-0.21562232
39	0xbe239808	-0.15975964
40	0x3e537da8	0.20653403
41	0xbd8e056e	-0.069346294
42	0x3c8da841	0.017292144
43	0x3e86e21d	0.26344386
44	0xbc5e6f8a	-0.013576398
45	0x3cc6a0ac	0.024246536
46	0xbe00e1b2	-0.12586096
47	0xbe03760f	-0.12838005
48	0xbe910888	-0.2832682
49	0x3e31dc9a	0.17369309
50	0x3e6ade68	0.22936404
51	0x3e83a621	0.25712684
52	0x3e19f62a	0.1503531
53	0xbbbdd7f7	-0.0057935673
54	0xbdf06d85	-0.11739639
55	0x3d449263	0.047991168
56	0x3d8bacc6	0.06820063
57	0xbdd58535	-0.10425798
58	0x3da4fa9e	0.08055614
59	0xbc5ae67b	-0.013360615
60	0xbe2a8654	-0.16652805
61	0x3c90246a	0.017595489
62	0xbb9c569a	-0.004771066
63	0xbdeee677	-0.116650514
64	0x3e143064	0.14471585
65	0x3e46a3fb	0.19398491
66	0xbcce90ab	-0.025215467
67	0xbdd81b6b	-0.105521046
68	0xbe38fc54	-0.18065006
69	0xbce97854	-0.02849976
70	0x3e53b02a	0.2067267
71	0x3e1c14e3	0.15242343
72	0xbe77b70e	-0.24190924
73	0xbe1c277a	-0.15249434
74	0x3e3b7a8f	0.18308471
75	0x3e50193f	0.2032213
76	0xbda62658	-0.08112782
77	0x3e045de0	0.12926435
78	0x3dd1d153	0.102450036
79	0xbdd2a0ef	-0.10284602
80	0x3c580e6d	0.013187033
81	0x3ce0b348	0.027429238
82	0xbbd4a6aa	-0.0064895945
83	0x3e56a758	0.20962274
84	0x3d88aeab	0.0667394
85	0xbdbcdee9	-0.09222204
86	0x3d3290f4	0.04359527
87	0x3e3965eb	0.18105285
88	0xbdb000ef	-0.08593928
89	0x3d0b0d6c	0.033948347
90	0xbe12f171	-0.14349915
91	0x3dca61f2	0.09881963
92	0xbe83dc3e	-0.2575397
93	0xbd4d7be5	-0.050166983
94	0x3dc5bc20	0.096550226
95	0xbda48618	-0.08033389
96	0x3d020cef	0.031750616
97	0x3ce9f340	0.028558373
98	0x3d83417f	0.06408977
99	0xbe26c122	-0.16284612
100	0xbe5e7dc9	-0.2172767
101	0xbe0da114	-0.13830978
102	0xbdc98d1c	-0.098413676
103	0x3e5b598e	0.21420881
104	0xbe6f5e72	-0.23375872
105	0xbcfc0a24	-0.030766554
106	0x3d865cb8	0.065606534
107	0x3e692ab3	0.22770195
108	0xbe34e146	-0.1766406
109	0x3cb9e982	0.022694353
110	0xbb8995e5	-0.004198777
111	0xbd8e1d41	-0.069391735
112	0xbd6c7706	-0.057730697
113	0xbe505947	-0.20346557
114	0xbd54d08e	-0.051956706
115	0x3e0c33fa	0.13691702
116	0xbdfcd07c	-0.12344453
117	0xbe94f351	-0.29091886
118	0x3debdac3	0.11516335
119	0x3df041c4	0.11731294
120	0xbdba0790	-0.09083474
121	0x3e06ea87	0.13175403
122	0x3e2c2355	0.16810353
123	0xbe94b6a8	-0.29045606
124	0xbdeb9bb0	-0.115043044
125	0xbe50fa79	-0.20408048
126	0x3de059d3	0.109546326
127	0xbc758709	-0.014985808
128	0x3df6c818	0.120498836
129	0xbe0fb2cf	-0.14033054
130	0xbe673fbe	-0.2258291
131	0xbe5d1ab8	-0.21592224
132	0x3dacda0e	0.08440028
133	0x3c900b56	0.01758353
134	0xbe4ff577	-0.20308481
135	0xbe581625	-0.21102197
136	0x3b28f9cd	0.0025783658
137	0x3d5cff04	0.05395414
138	0x3c0d5e7d	0.008628485
139	0x3e7c059c	0.24611515
140	0x3e0b5bc3	0.13609223
141	0xbdfa0789	-0.122084685
142	0x3d1d95d7	0.038472977
143	0xbdda7c98	-0.106682956
144	0xbeac63a1	-0.3366976
145	0xbcb6b7b3	-0.022304391
146	0xbe6e5b2a	-0.23276964
147	0x3e73b32c	0.23798817
148	0x3e215d1e	0.15758178
149	0x3e1a9681	0.15096475
150	0xbe42f264	-0.19037777
151	0xbe7dcffa	-0.24786368
152	0x3d7bdc6d	0.06148951
153	0x3d815428	0.0631488
154	0xbe964379	-0.29348353
155	0x3daaf0f4	0.083467394
156	0x3e3ca628	0.18422759
157	0xbe8f298e	-0.2796139
158	0x3e23993c	0.15976423
159	0xbe2961f6	-0.16541275
160	0x3e544f76	0.20733437
161	0x3d8099e3	0.062793516
162	0x3d980d39	0.07424397
163	0xbdc7387b	-0.0972757
164	0x3e1fd6ba	0.15609255
165	0xbd00585a	-0.03133426
166	0x3e4392e2	0.19099
167	0xbdf99a0f	-0.121875875
168	0x3d1f238a	0.038852252
169	0xbe009b31	-0.12559201
170	0xbe3f58c6	-0.18686208
171	0x3e752b77	0.23942362
172	0x3ddcd819	0.10783405
173	0x3e0d4222	0.13794759
174	0xbe2e6c1c	-0.17033428
175	0x3db51d26	0.0884345
176	0xbbb28794	-0.005448291
177	0x3c0493af	0.008091851
178	0xbd9485de	-0.07252096
179	0xbe0c8cf9	-0.13725652
180	0x3ccbbd13	0.024870431
181	0x3e79231f	0.24329804
182	0x3e115ff8	0.14196765
183	0x3b7b48a8	0.0038342867
184	0x3e50c3d6	0.20387205
185	0x3e09b4e2	0.13447908
186	0x3e65f3e9	0.22456326
187	0x3dff1da9	0.12456829
188	0xbe801900	-0.25019073
189	0xbd9350cd	-0.07193146
190	0xbda90257	-0.082523994
191	0x3e21f067	0.15814362
192	0xbdf73f5c	-0.12072632
193	0xbe46c73a	-0.19411936
194	0x3d749ba5	0.059718747
195	0x3e19ffcb	0.15038984
196	0x3d80e222	0.062931314
197	0xbe43c07f	-0.191164
198	0xbdcc2146	-0.09967284
199	0xbe8d2b56	-0.27572125
200	0xbe7f8f2b	-0.24956958
201	0xbdea592e	-0.11442791
202	0x3dab7c49	0.08373315
203	0xbe5b9dac	-0.21446866
204	0x3d6d9564	0.058003798
205	0xbd53d864	-0.051720038
206	0x3e4e13a0	0.20124674
207	0x3d3b1172	0.045670934
208	0x3e684813	0.22683744
209	0x3e5137a5	0.20431383
210	0xbe0ac648	-0.13552201
211	0xbd66d4fc	-0.05635546
212	0x3c8665b8	0.016405925
213	0x3c1a543f	0.0094195
214	0x3d30a085	0.043121833
215	0x3e0d6dcf	0.1381142
216	0xbd9bb93f	-0.07603692
217	0xbe70ab4e	-0.23502848
218	0x3d03da5a	0.03219066
219	0xbe6cd52f	-0.23128198
220	0xbe2685f3	-0.16262035
221	0xbe4bbe37	-0.1989678
222	0xbd175eb5	-0.036955554
223	0xbda87d53	-0.08227029
224	0xbc982b7e	-0.018575426
225	0x3c384fc6	0.011249488
226	0xbd4885bd	-0.048955668
227	0xbc4e4e10	-0.012591854
228	0xbe1ea4ac	-0.15492505
229	0x3e334931	0.17508389
230	0xbd551dc8	-0.052030355
231	0x3e127efe	0.14306256
232	0xbcfa0b92	-0.030523095
233	0xbe0c1429	-0.13679565
234	0xbe4e8e6e	-0.2017152
235	0xbdeacb0a	-0.11464508
236	0x3e7266ce	0.2367203
237	0x3dcc9de4	0.09991053
238	0xbe0a6f2b	-0.1351897
239	0xbe56a1c3	-0.20960145
240	0x3e3e9b11	0.1861384
241	0x3e21c5d2	0.15798119
242	0xbd6934b4	-0.056935027
243	0xbe305217	-0.17218815
244	0x3d97bd89	0.07409198
245	0x3e711bb6	0.23545727
246	0x3b6aa1b5	0.0035801951
247	0x3e0d093a	0.13773051
248	0xbe3fae2d	-0.18718787
249	0x3e282c4a	0.16423145
250	0xbe6762ab	-0.22596233
251	0xbe7d91ae	-0.24762604
252	0xbd85e45e	-0.06537698
253	0xbcd90f93	-0.026496684
254	0xbc19130a	-0.009342918
255	0x3b29c210	0.0025903024

layer2.bias f4 [32]
0	0xbac8a2f5	-0.0015307354
1	0x3b07ae45	0.0020703238
2	0x398793ff	0.00025859472
3	0xba79009b	-0.00094986864
4	0x3a5fdabc	0.0008539369
5	0xbb4578fb	-0.0030131924
6	0xba80917c	-0.0009808983
7	0xba3e5d59	-0.00072618347
8	0xba902592	-0.0010997525
9	0xb9867a21	-0.00025649465
10	0x388f2900	6.826408e-05
11	0xb8f4bda8	-0.00011670153
12	0xb84af8f0	-4.8392394e-05
13	0x39ceb47b	0.0003942585
14	0x3ac5cb4a	0.0015090492
15	0xb9addd24	-0.00033161894
16	0x3af17fa1	0.0018424877
17	0x3ad9adc1	0.0016607569
18	0xba1415ee	-0.000564902
19	0x3aef4b47	0.0018256687
20	0x38e75699	0.000110310684
21	0xba04cb5f	-0.0005065705
22	0xbb00bdc0	-0.001964435
23	0x3b8c0945	0.004273566
24	0x3b07f0b7	0.0020742842
25	0x3b327f46	0.0027236505
26	0xb9243da3	-0.0001566322
27	0x3b133d8a	0.00224671
28	0xba38c041	-0.0007047691
29	0x39aeeeda	0.00033365824
30	0xb98b3d2f	-0.0002655773
31	0xba14278c	-0.0005651645

layer3.weight f4 [2, 32]
0	0x3e2267cc	0.15859908
1	0xbde65571	-0.112467654
2	0x3ee9e433	0.45681915
3	0xbcb3fd35	-0.021971324
4	0x3f088aec	0.5333698
5	0x3eeba457	0.4602382
6	0x3ec18cf0	0.3780284
7	0x3f1e917f	0.6194076
8	0x3e8f00a4	0.27930176
9	0x3f11c136	0.5693544
10	0xbc8e81b5	-0.017395834
11	0x3ec1fb49	0.37887028
12	0x3d1fe1bf	0.039033648
13	0x3d939d77	0.072077684
14	0x3e1fe906	0.15616235
15	0xbdf02f25	-0.11727742
16	0x3eb92f94	0.36169112
17	0x3e839863	0.257022
18	0x3f066c24	0.5250876
19	0x3e32b356	0.17451224
20	0xbe194f61	-0.14971687
21	0x3ec451a8	0.3834355
22	0xbd98e60d	-0.07465754
23	0x3e42b5ba	0.19014636
24	0x3cb6c3de	0.022310194
25	0xbd99c7ba	-0.07508798
26	0x3e63dba4	0.22251755
27	0xbd33900c	-0.043838546
28	0x3ec6980c	0.38787878
29	0xbcc3c4b8	-0.023897514
30	0xbe2d9762	-0.16952279
31	0x3e17f9dd	0.14841409
32	0xbf013743	-0.5047495
33	0xbce8fc27	-0.028440548
34	0xbedcc119	-0.43116072
35	0xbda09a32	-0.078419104
36	0xbe47376f	-0.1945474
37	0xbf14d204	-0.5813296
38	0x3dcd2b68	0.10018045
39	0xbcd3393b	-0.025784126
40	0xbefa0388	-0.4883082
41	0x3e0a60ef	0.1351354
42	0xbe43e816	-0.19131503
43	0xbec55a4e	-0.3854546
44	0xbcf906d6	-0.030398767
45	0xbe5f19ae	-0.2178714
46	0xbefbde4d	-0.4919304
47	0xbed1af17	-0.40953895
48	0xbf208bd6	-0.6271337
49	0x3c1d446a	0.009598831
50	0xbe397813	-0.18112211
51	0xbd118f6d	-0.035537172
52	0xbd4379f1	-0.047723714
53	0xbeb0ae68	-0.3450806
54	0xbf295072	-0.66138375
55	0xbf1f2cf5	-0.62177974
56	0xbe0b9d5e	-0.1363425
57	0xbe923c85	-0.28561798
58	0xbee05799	-0.43816832
59	0x3e267477	0.16255365
60	0x3de07dcd	0.109614946
61	0x3d2060c3	0.03915478
62	0x3ccd9e0e	0.02509978
63	0xbb8742fd	-0.0041278587

layer3.bias f4 [2]
0	0x3e8ae48e	0.27127498
1	0xbe8ae48f	-0.271275

batch_norm1.weight f4 [64]
0	0x3f7fdc0e	0.9994515
1	0x3f78db71	0.9720984
2	0x3f7990c0	0.97486496
3	0x3f7f2279	0.99661976
4	0x3f849dc6	1.0360649
5	0x3f8162ea	1.0108311
6	0x3f7c1449	0.9846845
7	0x3f82cab5	1.0218111
8	0x3f728e30	0.9474821
9	0x3f709df1	0.93991
10	0x3f83b6de	1.0290182
11	0x3f7d5d0f	0.9897012
12	0x3f862e1b	1.048282
13	0x3f7fa27d	0.9985731
14	0x3f749670	0.9554205
15	0x3f86450b	1.048982
16	0x3f82d7e1	1.0222131
17	0x3f7a0d2e	0.9767636
18	0x3f827ad4	1.0193734
19	0x3f860399	1.0469848
20	0x3f6dc3d0	0.9287691
21	0x3f7b0612	0.9805614
22	0x3f7ef52b	0.99592847
23	0x3f8493d1	1.035761
24	0x3f81dd73	1.0145706
25	0x3f83db7a	1.0301354
26	0x3f854588	1.0411844
27	0x3f82da52	1.0222876
28	0x3f7faf98	0.9987731
29	0x3f7e9682	0.99448407
30	0x3f7dd605	0.9915469
31	0x3f6980ff	0.9121246
32	0x3f73addf	0.9518718
33	0x3f80991c	1.0046725
34	0x3f7b2007	0.98095745
35	0x3f76afa5	0.9636176
36	0x3f8445a9	1.0333759
37	0x3f8197c9	1.0124446
38	0x3f75b417	0.9597792
39	0x3f7ae20a	0.9800116
40	0x3f833680	1.0251007
41	0x3f7e418f	0.99318784
42	0x3f7c54d7	0.98566955
43	0x3f809e42	1.0048296
44	0x3f7cee39	0.98801
45	0x3f739bb6	0.9515947
46	0x3f710556	0.94148767
47	0x3f8570ea	1.0425084
48	0x3f8186ff	1.0119323
49	0x3f831baa	1.0242817
50	0x3f820469	1.0157596
51	0x3f7dabd6	0.99090326
52	0x3f83b284	1.0288854
53	0x3f82b4bd	1.0211407
54	0x3f806e69	1.0033695
55	0x3f8100d8	1.0078382
56	0x3f836325	1.0264632
57	0x3f7f46de	0.9971751
58	0x3f841138	1.0317755
59	0x3f70384f	0.9383592
60	0x3f7e867b	0.9942395
61	0x3f87c0d7	1.0605725
62	0x3f81d4e7	1.0143098
63	0x3f81afa3	1.0131725

batch_norm1.bias f4 [64]
0	0x3bea7ceb	0.0071560047
1	0x3cafc7e0	0.021457613
2	0xbc1cf419	-0.009579682
3	0x3a30ee92	0.0006749417
4	0x3d018ca1	0.031628255
5	0x3c3e37d0	0.011609986
6	0xbcb750cd	-0.022377396
7	0xbc32612a	-0.0108874235
8	0xbcf26466	-0.02958889
9	0xbcd7a6d0	-0.02632466
10	0x3cb778a4	0.022396393
11	0xbc7dfe7f	-0.015502571
12	0x3d1637b9	0.036674235
13	0xbd5da6fc	-0.054114327
14	0xbd4265e7	-0.047460463
15	0x3cb46a35	0.0220233
16	0x3c99f398	0.018792912
17	0xbc9b8d3b	-0.018988242
18	0x3b864a29	0.004098196
19	0x3cabb0cc	0.020958327
20	0xbd68592a	-0.05672566
21	0xbc7a7813	-0.015287417
22	0xbc359c77	-0.011084667
23	0x3d57238f	0.052524146
24	0x3c81263d	0.015765304
25	0x3ce8c4be	0.028414126
26	0x3d76edd7	0.060285416
27	0x3c89555c	0.016764335
28	0x3ba4537c	0.005014835
29	0x3c15e617	0.009149096
30	0x3a133bb8	0.0005616504
31	0xbd3f380a	-0.046684302
32	0xbd1800de	-0.037110202
33	0x3c517d9c	0.012786295
34	0xbd0acc0f	-0.03388601
35	0xbc88d783	-0.016704326
36	0x3cfcc598	0.030855939
37	0x3c4ef4fb	0.01263165
38	0xbd0eb370	-0.034839094
39	0xbceda724	-0.029010363
40	0x3d2a4b46	0.041575693
41	0x3ca05486	0.019571554
42	0xbd02111f	-0.03175461
43	0xbc963fad	-0.01834091
44	0x3b0868eb	0.002081449
45	0xbd16ac25	-0.036785264
46	0xbd5562d8	-0.052096218
47	0x3c5e3bc4	0.013564054
48	0xbc06b687	-0.008222229
49	0x3bbe3661	0.0058048223
50	0x3c555f43	0.0130232
51	0xbc0f8aaa	-0.008761087
52	0x3bc4bd7e	0.0060040345
53	0x3c483060	0.012218565
54	0x3d21561d	0.039388765
55	0x3c3a7e2f	0.011382624
56	0x3d0dd090	0.03462273
57	0x3ce3daf9	0.027814375
58	0xbad6ed3f	-0.0016397609
59	0xbd53666b	-0.051611345
60	0xbbc1109e	-0.0058918735
61	0x3d302432	0.04300327
62	0x3c561a10	0.013067737
63	0x3bdb3f2b	0.00669088

batch_norm1.running_mean f4 [64]
0	0x3ce2fcd0	0.027708441
1	0xbdab9bd6	-0.08379333
2	0x3d343f29	0.044005547
3	0xbda64aff	-0.08119773
4	0x3d9e78bb	0.07737871
5	0xbc0d5a49	-0.008627483
6	0xbdeac5bc	-0.11463496
7	0x3e159c67	0.14610444
8	0xbbd7c8d1	-0.0065852185
9	0xbdbda4d0	-0.09259951
10	0x3e52808b	0.20556848
11	0xbd38f4f8	-0.045155495
12	0x3d3875ad	0.0450341
13	0x3e06f5ce	0.13179705
14	0x3e64cebb	0.22344486
15	0x3d251175	0.04029985
16	0xbe8e1936	-0.2775361
17	0xbe1ffc2d	-0.15623541
18	0xbe99add1	-0.30015424
19	0x3cc06647	0.02348627
20	0xbe51f9e9	-0.2050549
21	0x3e1cd780	0.15316582
22	0x3d97fb2d	0.07420955
23	0xbeafe89b	-0.3435715
24	0x3dd27fc6	0.10278277
25	0x3d9313ab	0.07181486
26	0xbe598bf9	-0.21244802
27	0xbbe41143	-0.0069600656
28	0x3def7a83	0.11693289
29	0xbcd9723d	-0.02654373
30	0x3dafbf47	0.08581405
31	0xbcae89dd	-0.021305973
32	0xbe43972b	-0.19100635
33	0xbc8cebff	-0.017202375
34	0xbbeca664	-0.0072219837
35	0x3d9ebaef	0.077504985
36	0x3e63925c	0.222238
37	0x3da8e327	0.08246451
38	0xbe11748e	-0.14204618
39	0xbe03f460	-0.1288619
40	0x3d53229a	0.05154667
41	0x3e4da7fe	0.20083615
42	0x3e3d0358	0.18458307
43	0xbca087ae	-0.019595947
44	0xbc9bd3db	-0.019021919
45	0x3dc10eee	0.09426676
46	0x3e1de30e	0.15418646
47	0xbcdc0e04	-0.026862152
48	0xbe8ee22b	-0.27906927
49	0x3e16089d	0.14651723
50	0xbde04289	-0.109501906
51	0xb9a05800	-0.00030583143
52	0x3da0eda4	0.07857826
53	0x3de7c37e	0.11316584
54	0x3d86217a	0.06549354
55	0x3c7d496a	0.015459398
56	0x3e0282c0	0.1274519
57	0x3df10dac	0.11770186
58	0x3e4390aa	0.19098154
59	0x3c4f4e0d	0.012652886
60	0xbd9c328f	-0.07626831
61	0x3dbc5385	0.091956176
62	0x3e4ae2ec	0.19813126
63	0x3da156e8	0.07877904

batch_norm1.running_var f4 [64]
0	0x3c8d7cdb	0.01727145
1	0x3ccb37b9	0.024806844
2	0x3c8f6849	0.017505782
3	0x3c80c501	0.015718939
4	0x3d32c0e7	0.043640997
5	0x3ca52ba4	0.020162411
6	0x3d03dd80	0.03219366
7	0x3d299263	0.04139937
8	0x3c8a49a9	0.016880827
9	0x3d271588	0.04079202
10	0x3ced732b	0.02898558
11	0x3cb6dbac	0.022321545
12	0x3c7cb709	0.015424498
13	0x3d6d0320	0.05786431
14	0x3d0b6e8e	0.03404098
15	0x3d0dbb3a	0.03460238
16	0x3d11732a	0.03551022
17	0x3cbaa136	0.02278195
18	0x3ccd49e1	0.025059642
19	0x3c85cb6f	0.016332356
20	0x3d2c277e	0.04202985
21	0x3c982d21	0.018576207
22	0x3c7185d2	0.014741378
23	0x3d05b69e	0.03264486
24	0x3c528192	0.012848275
25	0x3cbf1bce	0.023328688
26	0x3cf187c5	0.029483685
27	0x3c6c711e	0.014431266
28	0x3c8c65ff	0.01713848
29	0x3c9dbf4c	0.019256257
30	0x3cb7e536	0.022448163
31	0x3d19a6f6	0.037512742
32	0x3cec5eaf	0.028853742
33	0x3cacddb1	0.021101804
34	0x3c5bcebc	0.013415989
35	0x3cb6b852	0.022304688
36	0x3c765bd8	0.015036546
37	0x3cc25ebe	0.023726817
38	0x3cb03183	0.021507984
39	0x3cce5352	0.025186215
40	0x3c37108b	0.011173378
41	0x3ca1de32	0.019759271
42	0x3d03cadf	0.032175895
43	0x3c943439	0.018091308
44	0x3c78d5b1	0.015187667
45	0x3cac9f5c	0.021072082
46	0x3cb960ff	0.02262926
47	0x3d09abc4	0.033611074
48	0x3cdd9c06	0.027051937
49	0x3cc8c6f2	0.024508927
50	0x3c9d32fd	0.019189352
51	0x3c9704a0	0.018434823
52	0x3ce8d3e4	0.02842135
53	0x3cb96874	0.022632815
54	0x3cb5a477	0.02217315
55	0x3cce6a3b	0.025197139
56	0x3cfc4762	0.030795757
57	0x3cf5f190	0.030022413
58	0x3c7f0d9e	0.015567211
59	0x3c970835	0.01843653
60	0x3c79ab5c	0.015238609
61	0x3cb3d8fe	0.021954056
62	0x3cf6f548	0.030146256
63	0x3c4da20c	0.012550842

batch_norm2.weight f4 [32]
0	0x3f9ebd3f	1.2401503
1	0x3f4cb9cb	0.79971
2	0x3f9f0afc	1.2425227
3	0x3f562a93	0.83658713
4	0x3f9dcb55	1.2327677
5	0x3fa0aa96	1.2552059
6	0x3f8ce840	1.1008377
7	0x3fa30d70	1.2738476
8	0x3fa04653	1.2521461
9	0x3f9b477c	1.213119
10	0x3f7992a1	0.9748936
11	0x3fa1a132	1.2627318
12	0x3f5c2996	0.86000955
13	0x3f8adb07	1.0848092
14	0x3fa3d16e	1.2798288
15	0x3f8fd353	1.1236366
16	0x3f9f996c	1.2468696
17	0x3f86d5f4	1.0534043
18	0x3f9f2c6a	1.2435429
19	0x3f883dd0	1.0643864
20	0x3f496a4c	0.7867782
21	0x3f9ff90b	1.2497877
22	0x3fa31a15	1.2742335
23	0x3f9da2b2	1.2315276
24	0x3f7979ca	0.9745146
25	0x3f7e6bb5	0.993831
26	0x3fa15f93	1.2607292
27	0x3f4bdd77	0.79634804
28	0x3f8c8826	1.0979049
29	0x3f4d8ca2	0.80292714
30	0x3f43ab4c	0.76433253
31	0x3f74dfc0	0.95653915

batch_norm2.bias f4 [32]
0	0x3e89cfc7	0.26916334
1	0xbe559909	-0.2085916
2	0x3e8bf75e	0.27337164
3	0xbe26fbdf	-0.16307019
4	0x3e84d194	0.25941145
5	0x3e87061c	0.2637185
6	0x3df59ee5	0.11993197
7	0x3e920dc3	0.28526124
8	0x3e8a765e	0.27043432
9	0x3e727c32	0.23680189
10	0xbc926c85	-0.017874012
11	0x3e8d64f5	0.27616087
12	0xbe0e76a2	-0.13912442
13	0x3e0bbb36	0.13645634
14	0x3e975e10	0.29563951
15	0x3e18a75e	0.14907596
16	0x3e85abbd	0.26107588
17	0x3d93c3fc	0.072151154
18	0x3e8c8feb	0.2745355
19	0x3e071807	0.1319276
20	0xbe620386	-0.22071657
21	0x3e8e0820	0.27740574
22	0x3e924e9b	0.28575596
23	0x3e8523a1	0.26003745
24	0xbc84df57	-0.016219778
25	0xbc1301d1	-0.008972601
26	0x3e92ac7b	0.28647217
27	0xbe5ca4f5	-0.21547301
28	0x3e0c875e	0.13723513
29	0xbe5a88d4	-0.21341258
30	0xbe70fc92	-0.23533848
31	0xbbbfc99f	-0.0058528925

batch_norm2.running_mean f4 [32]
0	0xbd8e127c	-0.06937119
1	0xbe644746	-0.22292814
2	0xbd3cb07c	-0.046066746
3	0xbf344478	-0.70416975
4	0x3e0a6b94	0.135176
5	0xbf18ac42	-0.59637845
6	0xbf0181a7	-0.5058846
7	0xbf2d794e	-0.6776322
8	0xbf41de0d	-0.7572945
9	0xbdc0634b	-0.09393939
10	0x3f194c6e	0.5988225
11	0xbf21b905	-0.6317294
12	0x3e8686be	0.26274675
13	0x3e4b8a66	0.19877014
14	0xbfa51e99	-1.2899963
15	0x3e79edab	0.2440707
16	0xbf26e428	-0.6519189
17	0xbe32fc26	-0.17479
18	0xbedb63f4	-0.42849696
19	0x3ebf1168	0.37317967
20	0xbf1dc298	-0.6162505
21	0xbf4533df	-0.77032274
22	0xbf819cd7	-1.0125989
23	0xbe8deaf2	-0.27718312
24	0x3f3c92a3	0.7366125
25	0x3e800576	0.25004166
26	0x3f43699b	0.76333016
27	0x3f32df51	0.69872004
28	0xbeddec03	-0.43344125
29	0xbeaab47d	-0.33340827
30	0xbf0cfa34	-0.5506928
31	0x3e9815a4	0.2970401

batch_norm2.running_var f4 [32]
0	0x3f62263d	0.88339597
1	0x3fb51898	1.414813
2	0x3fd81e25	1.6884199
3	0x3fb987a1	1.4494516
4	0x3f4e8984	0.8067858
5	0x3f845135	1.0337282
6	0x3f5cb5ba	0.8621479
7	0x3fb37809	1.4021007
8	0x3fa115fb	1.2584833
9	0x3f3a8a82	0.72867596
10	0x3f0e8308	0.5566869
11	0x3f985409	1.1900645
12	0x3fb237b8	1.3923254
13	0x3f5e7f7e	0.8691329
14	0x3fc9f318	1.5777311
15	0x3f465936	0.77479875
16	0x40066290	2.0997658
17	0x3f4486d0	0.7676821
18	0x3f896ab1	1.0735685
19	0x3f36e507	0.7144322
20	0x3fdf2801	1.7434083
21	0x3f9996de	1.1999166
22	0x3fd6a9d3	1.6770576
23	0x3fb23fe4	1.3925748
24	0x3f60b50d	0.8777626
25	0x3f506e54	0.8141835
26	0x400a0e15	2.1571095
27	0x3faf38b1	1.3689176
28	0x3f73269c	0.9498079
29	0x3fc99cf8	1.5751028
30	0x401e4726	2.4730926
31	0x3f447153	0.7673542
