models/server_model.pt (torch, 344719 bytes, 14 tensors)

layer1.weight f4 [64, 1060]
000000 73 83 30 bb 04 a6 31 bd ba e1 a5 bd ea 9a 90 bd
       -0.0026933819 -0.043371215 -0.080996946 -0.070607975
000010 98 b6 30 3c a2 5f a6 bd 81 0b 8b bc a4 05 9e bd
       0.010785721 -0.08123709 -0.016973259 -0.077159196
000020 ce dd 1b bd f7 c4 82 bc 7d 7c 95 bd 8e c4 5b 3d
       -0.038053326 -0.01596306 -0.07299135 0.053654246
000030 bb 41 c5 bd ff 1d b4 3d 19 a7 3b bc 58 96 99 bd
       -0.09631678 0.08794784 -0.011453413 -0.07499379
000040 7c 8c 56 bd 74 d3 3d 3d f7 07 9a bd 11 fb 95 bc
       -0.05238007 0.046344236 -0.075210504 -0.018308194
000050 3c 57 02 bb 00 ff 91 3d 2c dd 4a bd c0 61 20 bc
       -0.0019888422 0.071287155 -0.049527332 -0.00978893
000060 fc d8 5e 3d a4 18 a3 bc fb a4 80 3d 98 23 66 3c
       0.05440615 -0.01990921 0.062814675 0.014046572
000070 de 9c 61 bd 70 8d b8 3c 9a e6 00 3d 95 1b 0b 3d
       -0.05508124 0.02252838 0.03146992 0.03396185
000080 e5 5d a1 bc 9a e1 5f 3d 0e 98 7d bd 44 32 87 bd
       -0.019698093 0.05465851 -0.06191259 -0.06601384
000090 fd db a2 3d d1 d8 bb bd c5 f5 91 bd 06 e8 3a 3d
       0.07952116 -0.09172214 -0.07126955 0.04563143
0000a0 76 92 7e bd 27 0f a8 3a e9 45 14 3c 60 51 73 ba
       -0.062151395 0.0012821899 0.009049871 -0.000928184
0000b0 ba 83 1d 3d 4d ed 32 bd 8b 51 8d bc 17 66 26 3d
       0.038455702 -0.04368334 -0.017250797 0.040624704
0000c0 fd 64 9c bd a8 61 97 3d 01 11 c7 bc 26 9a c9 bc
       -0.076364495 0.07391673 -0.0243001 -0.024609637
0000d0 5b 8c 0a bd 8c 4c e2 3c c1 86 8e 3c 78 d1 e6 bc
       -0.03382526 0.027624391 0.01739824 -0.028176054
0000e0 a4 98 86 bd 6c c3 d7 3d f6 20 86 3c 59 fb 63 3d
       -0.06572083 0.10535321 0.016373139 0.055659626
0000f0 06 82 13 3d 77 a8 fa 3d 0d 90 47 bd f9 af 4c 3d
       0.036012672 0.12239163 -0.048721362 0.049972508
000100 30 84 a5 3a 3c 1b af 3b 06 8e 10 bc 48 c2 dc 3b
       0.0012627896 0.0053438228 -0.0088229235 0.0067370273
000110 52 54 87 bd da d1 b8 3d 4c 2f 98 3d f4 17 40 bc
       -0.0660788 0.09024401 0.07430896 -0.011724461
000120 8c d0 8e bd 98 e7 4f bd 0d 8d 6b bc 3d 80 a7 bb
       -0.06973371 -0.050757974 -0.014376891 -0.0051117227
000130 06 46 35 bc f4 b4 59 bb 26 f3 4c bd 01 af 4e 3d
       -0.011064058 -0.0033219429 -0.050036572 0.050459865
000140 d8 b2 c5 bc 52 bd 70 bd 7b 5f cf bd f6 3a 43 3c
       -0.02413313 -0.0587743 -0.10125633 0.011915913
000150 e8 e9 59 3c 07 69 61 3d 35 bf 33 3d 17 27 b8 3d
       0.0133003965 0.055031803 0.04388352 0.08991831
000160 b3 c5 a1 3d ab 26 65 bd 00 52 98 bb 3a 1e b4 bd
       0.07899036 -0.05594508 -0.004648447 -0.08794828
000170 d0 23 a8 3d 80 f3 a9 b9 5c b2 f0 bc bf e7 8b 3d
       0.08209956 -0.00032415614 -0.029381923 0.068313114
000180 a4 fa 37 bb 4f ba 47 3d a3 44 ab bc 5c b2 72 3d
       -0.0028072977 0.048761662 -0.020906752 0.059252128
000190 9f 05 8a bc a5 ce f7 bc e5 c8 92 bc 27 72 78 3b
       -0.016848383 -0.030249903 -0.01791806 0.0037909837
0001a0 f7 5b 3c 3d 34 75 7b bd d7 b0 60 3d ea 11 aa 3b
       0.045986142 -0.06139107 0.054856148 0.005190124
0001b0 44 6f 06 3d 39 99 8a 3d 30 d4 62 bd 47 6e d7 bd
       0.032820955 0.06767506 -0.05537814 -0.105190806
0001c0 24 90 61 bc 92 7f 3f 3d 3f 25 b6 bc 38 d3 7a 3c
       -0.013767276 0.04675252 -0.022234557 0.015309148
0001d0 ec 30 40 3d 00 bd fc ba 9c 8e 6f 3d 0c 01 d6 3d
       0.046921656 -0.0019282401 0.058485612 0.104494184
0001e0 5f dd ac 3d 90 69 76 3d 20 f4 7b ba f2 46 2e bc
       0.08440661 0.060159266 -0.00096112676 -0.010637032
0001f0 5c 7f c1 bd c5 d0 0e bc 2b 7c 96 bd 66 6f 18 bd
       -0.0944812 -0.008716767 -0.07347902 -0.037215613
000200 50 a4 f5 bd b3 80 6d 3d b6 ea 02 bd 43 0c 83 3d
       -0.11994231 0.057984065 -0.03196212 0.06398823
000210 a9 b6 1e bd dc a1 6a 3d c3 30 52 3d da 6d a9 bc
       -0.038748417 0.057283267 0.051316034 -0.020682264
000220 f6 d0 cb 3d ff 93 4d bd 64 d2 59 3d fe 30 27 3c
       0.099519655 -0.05018997 0.05317916 0.010204552
000230 a0 13 b8 3a 2e c5 25 3d 38 ba 8c bc 80 f7 12 3d
       0.0014043935 0.04047125 -0.01717864 0.035880566
000240 40 e3 f2 3a 60 ac e4 3d 6d 2c 8c 3c aa e4 9f 3d
       0.001853086 0.111656904 0.017111028 0.07807286
000250 9e 4c b2 3c 82 b4 c7 bb d3 be 70 3d 66 2d e4 bc
       0.02176505 -0.0060945163 0.058775734 -0.027853679
000260 3b 6a bd 3d fc ee de 3c 93 d0 a4 3d 79 b6 76 3d
       0.092487775 0.027213566 0.08047595 0.060232613
000270 3e e4 14 bd fa 67 b2 3c 95 71 89 3d 2b 80 01 3d
       -0.03635048 0.021778096 0.06711117 0.03161637
000280 40 f4 af bb 52 db 88 bd cb a1 7a bd b5 1d 83 bd
       -0.005369693 -0.06682457 -0.061189454 -0.064021505
000290 a5 0c 77 bd ec 7d d9 bb d8 bb 98 3d 00 50 02 bd
       -0.060314793 -0.0066373255 0.07457703 -0.031814575
0002a0 51 c1 b2 bb af 3f 16 bc 2a 53 37 3c 98 33 0d 3d
       -0.005455174 -0.009170457 0.011189261 0.03447303
0002b0 18 17 e0 bc b5 f9 69 3c f6 f6 d5 bc 4e 8a 21 3d
       -0.027354762 0.014280726 -0.026118737 0.03943854
0002c0 98 f1 40 3b 79 0d 80 bc ee de 48 bd 0e 4c 2d bc
       0.0029440876 -0.015631424 -0.049040727 -0.010577215
0002d0 ff f6 0a 3d 65 e8 ec bb ac f7 c3 bd f0 5d 0c bd
       0.03392696 -0.007229852 -0.09568724 -0.034269273
0002e0 ac fd 84 bd 22 5f 2a 3c e3 29 c7 bc 9a d7 ff bc
       -0.064936966 0.010398658 -0.024311965 -0.031230737
0002f0 a9 40 94 3d 51 5c a7 3d 95 a9 60 3d 11 39 f8 bc
       0.072388954 0.08171905 0.054849226 -0.030300649
000300 5e 80 51 bd aa 0a be 3c 09 7a db 39 e5 d5 7b 3d
       -0.05114781 0.023198444 0.00041861858 0.061483283
000310 56 57 34 3c 18 d2 ff bc 64 3e a5 3c bc 29 d5 bd
       0.011007151 -0.03122811 0.020171352 -0.10408351
000320 64 bd 20 bd d4 77 2d bb 99 06 76 3c 31 7e 03 bd
       -0.039243117 -0.0026469128 0.015016221 -0.032102767
000330 ee 2a 9d 3d 1e f0 70 bd 2e cd 3f bc c2 67 ab bc
       0.07674204 -0.058822744 -0.0117066335 -0.020923499
000340 b0 8b 18 3d 8b 42 9c 3d 92 6d e5 bc f6 f0 3e bd
       0.03724259 0.076298796 -0.028006349 -0.046616517
000350 7e df 99 bc d0 9c d6 3c 22 31 ac 3c 79 a1 82 3d
       -0.018783327 0.02619782 0.021019522 0.06378455
000360 10 87 97 3d 98 10 8c 3b fc 02 82 3d 45 b3 41 bc
       0.07398808 0.004274439 0.063482255 -0.011822526
000370 e6 63 93 3d ee 3f ae 3d 28 70 b5 bd a2 2e 48 bd
       0.071967885 0.08508287 -0.08859283 -0.048872598
000380 e0 35 d0 bb 73 ed 1d bd 2a 5e 48 bd 91 8f 42 bd
       -0.0063540787 -0.038556527 -0.048917927 -0.047500197
000390 90 80 31 bd ab 9a 7b 3d 45 bc aa bd 9a 11 6b bd
       -0.043335497 0.0614268 -0.08336691 -0.057389833
0003a0 05 65 c7 bd 7a d8 21 3d 79 b0 a8 bd 11 e3 a1 bd
       -0.09736065 0.03951309 -0.082367845 -0.079046376
0003b0 1b d0 12 bd a8 ca 6d 3d 3e 8c 23 bd 0a cd 87 3d
       -0.035842996 0.058054596 -0.039928667 0.06630905
0003c0 72 b5 81 3d 45 81 b9 bd 26 8a 91 3d 29 e4 6e bd
       0.06333436 -0.09057859 0.07106428 -0.05832306
0003d0 81 c9 80 3d 24 d8 97 ba b0 02 15 3d a6 e0 18 bc
       0.06288434 -0.0011584801 0.036379516 -0.009330904
0003e0 b4 03 ce 3c 30 a9 f9 3c ad a1 8f 3d 9c f4 9a 3d
       0.02514825 0.030476183 0.07013259 0.07566187
0003f0 10 70 14 3c 0e 97 9d 3d ea 4d 9e bc 08 df 57 3c
       0.009059921 0.07694827 -0.019324262 0.013175733

layer1.bias f4 [64]
000000 78 bc cb ba a1 7e 8f ba 88 79 c3 b9 46 03 13 ba
       -0.0015543839 -0.0010947773 -0.00037283846 -0.0005608093
000010 ae c1 f8 3a b6 f0 1e 3b 4e 29 17 3b 28 9c cf ba
       0.001897862 0.0024252362 0.002306539 -0.0015839385
000020 68 51 d8 38 98 c2 4c 39 af 34 b2 ba c5 fe f4 ba
       0.00010314846 0.00019527448 -0.0013596023 -0.001869165
000030 5f 18 96 3b 0b 72 65 ba b7 fc 04 3b d4 05 d1 b9
       0.004580542 -0.00087526505 0.0020292231 -0.0003986793
000040 26 4d 9d bb d8 dc b1 ba 12 7d 24 bb 5a fa fe 3a
       -0.0048004566 -0.0013569845 -0.0025098962 0.0019453273
000050 82 3b 2c 3b 84 41 a6 ba 5c fd ea ba 61 dd aa ba
       0.0026280587 -0.001268432 -0.001792829 -0.0013035947
000060 8d 77 9a ba 88 ce 4b 3b 4d 8a fc ba c4 73 86 3a
       -0.0011784896 0.0031098444 -0.0019267291 0.001025789
000070 66 8e 0e bb 66 6d 46 bb 65 0e 88 3a f0 e2 92 b9
       -0.0021752357 -0.003027761 0.0010380266 -0.00028016372
000080 d2 2a 3f 3b 68 99 51 b9 48 0e 72 b9 e6 9f a7 b9
       0.002916981 -0.00019988941 -0.00023084239 -0.00031971856
000090 ab 1d cd ba f9 97 15 bb f6 71 70 3b c8 51 e8 ba
       -0.00156491 -0.0022826178 0.003668902 -0.0017724568
0000a0 4d 6c 4e 3a c2 83 34 3a e4 37 3a 3b a2 9a 32 bb
       0.00078744144 0.00068860885 0.002841466 -0.0027252813
0000b0 2d 39 c5 3a b9 ca e8 ba e1 fb 1d ba a8 fc fb 3a
       0.0015046947 -0.0017760611 -0.00060266076 0.0019225078
0000c0 92 3b 61 3b a9 26 87 bb 8f 2b 9b ba 05 2a f0 39
       0.0034367782 -0.0041244817 -0.0011838543 0.00045807674
0000d0 9b 67 1b ba d5 be 1f 3a cd 97 11 3b f3 46 04 3b
       -0.0005928219 0.0006093805 0.0022215724 0.002018389
0000e0 78 dc e9 38 22 4f 70 ba 24 9f 95 ba b0 05 af 3a
       0.00011151371 -0.0009167065 -0.0011415225 0.0013353135
0000f0 7c a8 e7 3a c9 35 29 bb 96 fc 0d bb 14 47 f4 3a
       0.0017674114 -0.0025819412 -0.0021665446 0.0018636906

layer2.weight f4 [32, 64]
000000 8e 18 37 be 1d 9d bb bd f0 49 10 3b f6 21 6b 3d
       -0.1788046 -0.09160826 0.0022016726 0.057405435
000010 1c 11 e5 bc 7c 19 5a 3d c3 6f f8 bd 03 0d 61 be
       -0.02796226 0.05324696 -0.12130692 -0.2197762
000020 bc a2 07 be ac f6 22 3e 10 d8 e5 3c c7 c7 e0 bd
       -0.13245672 0.1591441 0.028057128 -0.109756045
000030 14 6f 16 bd a9 c8 45 3e 17 9a 0c 3e 48 3f 95 3c
       -0.036727026 0.19314827 0.13730656 0.018218651
000040 d6 5d 6d bd 3a 98 16 be 80 c3 3b 3e 41 59 09 be
       -0.057950817 -0.14706507 0.18336296 -0.13412954
000050 35 06 2f 3d d0 9e 5a ba fd f1 37 3e 58 d1 76 bc
       0.04273053 -0.0008339705 0.17963405 -0.01506456
000060 ce 91 de 3d 02 c9 ca 3d ed 52 76 3d b0 f5 73 3c
       0.10867654 0.099016204 0.060137678 0.014890119
000070 0f 62 00 3e b0 eb 92 3b db ec 9f bc e2 4d 1d be
       0.12537406 0.0044836625 -0.019522121 -0.15361741
000080 2a 69 b9 bd b9 e6 ea 3c fa 06 18 3d fc 06 72 3d
       -0.090532616 0.02867447 0.03711603 0.059088692
000090 28 2f 74 3b 6d a0 48 bd 40 6d 3e bd 20 85 59 bb
       0.0037259553 -0.04898112 -0.046490908 -0.003319092
0000a0 64 42 df 3d 80 d2 d6 bd f4 75 7e bd 4b 16 1c be
       0.10901335 -0.104893684 -0.062124208 -0.15242879
0000b0 46 e1 5b 3c f8 ec 5c bd 8d 6c 58 bd 7f 02 80 3c
       0.013420409 -0.05393693 -0.052837897 0.01562619
0000c0 8c e2 85 3c 17 67 f3 3d 5a f7 d3 3d 74 c1 35 bc
       0.016343378 0.11884897 0.10349913 -0.011093486
0000d0 65 4e a4 3c 25 af 05 be 47 23 ed bb 58 54 ea 3b
       0.020056913 -0.13055094 -0.0072368714 0.007151168
0000e0 54 98 c8 3d ec a8 9b bc 44 30 56 3e e8 f8 c4 bb
       0.09794679 -0.019001447 0.2091685 -0.0060111172
0000f0 1c 63 99 bc 38 a6 a5 3d b3 54 1e 3e 36 76 56 3d
       -0.018724017 0.08088344 0.15461998 0.05235883
000100 68 de fd 3d 5b 88 91 3d 02 70 87 3d 62 82 13 3d
       0.12395936 0.07106086 0.06613161 0.036013015
000110 c0 e2 13 be f4 ef 85 bc e9 4f bc 3d 40 15 d1 bd
       -0.14441967 -0.01634977 0.09194929 -0.10209131
000120 45 2e 1f be 40 81 7c bd 95 59 13 3d 9c 95 43 3d
       -0.15544994 -0.0616467 0.035974104 0.0477501
000130 46 28 8c bd a0 32 0f 3e 71 d8 c5 3d 4c f4 8a 3c
       -0.06843619 0.13984156 0.096604235 0.016962193
000140 b4 dc a5 3c 1a af 06 be 24 58 c1 3d 69 14 fd 3c
       0.020246841 -0.13152733 0.094406396 0.030893521
000150 00 38 28 3e 26 a0 e8 bc 27 d8 d3 bd 2c 7b af bc
       0.16427612 -0.028396677 -0.10343962 -0.021421038
000160 54 b1 8a bd e2 a1 50 bc ca 3e 8e bd a0 e7 e4 3d
       -0.06772104 -0.012733908 -0.0694557 0.111769915
000170 ea 2c 1f 3d b2 18 81 3d 99 55 95 bd e5 67 2b bd
       0.038861193 0.063035384 -0.07291717 -0.04184713
000180 b6 09 c0 bd 53 4f 45 bd 00 60 4e ba b2 62 a9 bd
       -0.09376852 -0.048171353 -0.00078725815 -0.08270778
000190 5a c0 e0 bc 52 6b 46 be 43 b7 e5 bd 2e 6d 3b 3e
       -0.02743547 -0.19376877 -0.11216595 0.18303367
0001a0 fa ac ce bc e4 1d 9a bd a0 9c 1d be 4e 7e 2f 3e
       -0.025228966 -0.075252324 -0.15391779 0.17138025
0001b0 56 c3 8a 3c c0 59 e7 39 b0 11 dd bb aa 9a 6f bd
       0.016938847 0.00044126622 -0.0067464933 -0.05849711
0001c0 d4 fc 45 bc d0 a8 80 bd e3 a4 2b 3e 7e 90 d4 bd
       -0.012084205 -0.062821984 0.16762118 -0.10379122
0001d0 28 f6 1c 3c d4 ed 34 3d a2 76 b1 bd 0a 9a 3b bc
       0.009580173 0.044172123 -0.086652055 -0.0114503
0001e0 d8 a2 bc bd e8 66 a8 3b 1f 79 92 be 80 17 14 3c
       -0.092107475 0.0051392205 -0.28608033 0.009038806
0001f0 ff 9c 0f bd cc 25 2f 3e 60 3d 1c 3b d7 be e7 3d
       -0.035061833 0.17104262 0.0023840293 0.11315697
000200 e1 02 aa bd 71 e5 13 3e 27 8e b8 3d d2 ea 3f 3e
       -0.0830133 0.14442994 0.090114884 0.1874192
000210 a0 bb ac 3c 39 57 af 3d 26 f1 3e be 39 23 9d 3d
       0.02108556 0.08561558 -0.18646678 0.07672734
000220 88 ed e3 bd 2a fb 1b 3e 7a bf d2 bd 6a 86 1e be
       -0.1112929 0.1523253 -0.102904275 -0.15480962
000230 9c 5d ed bc ee f3 de 3d 01 84 70 be 08 bb 7b 3c
       -0.0289753 0.1088637 -0.23487855 0.015364416
000240 62 44 33 bd 05 cd 6a 3d 14 9f 11 be dc 05 99 3d
       -0.043766387 0.057324428 -0.1422084 0.07471821
000250 48 a1 0b 3e 81 fb 24 3e a4 48 04 be cb 4b 38 bd
       0.13635743 0.16111566 -0.12918335 -0.044994157
000260 f4 09 be 3c 31 ba 94 3d 07 76 b5 3b 5e 62 d7 bd
       0.023198105 0.07262076 0.0055377516 -0.10516809
000270 76 e8 16 3d bd f5 83 be 16 fb 73 3d 82 60 9d 3c
       0.036842786 -0.2577342 0.059565626 0.019211058
000280 80 cf 8b bd 75 0d 11 3e b4 73 f5 3c 9d f7 bc bd
       -0.06826687 0.1416529 0.029962398 -0.09226916
000290 4b 2c 05 3e d9 32 e3 bd 5e 63 1c 3e 22 a7 21 be
       0.13005178 -0.11093683 0.1527228 -0.15786412
0002a0 78 30 c7 bc 30 29 9a bd 6b b3 1b 3d 84 30 0a bc
       -0.024315104 -0.07527387 0.038012903 -0.008434419
0002b0 8b 31 0e 3e 5c 46 b9 bd 5a e9 10 3e 78 db 2a 3c
       0.13886087 -0.09046623 0.14151517 0.010428302
0002c0 0c cb 0c be 72 d1 58 be 7b 41 99 bd 1c ca 8b 3d
       -0.13749331 -0.21173647 -0.074831925 0.06825659
0002d0 5c e5 34 bd b3 98 f2 bd 1b 2a 06 3e 94 3b 20 3e
       -0.044164047 -0.11845531 0.13102 0.15647727
0002e0 38 ff 1c 3c f7 0e 28 bd 46 72 4e 3d 92 b1 57 bd
       0.009582333 -0.041029897 0.05040195 -0.05265958
0002f0 a0 84 40 be d2 d7 7b be d7 41 70 bd ee 4e d2 bc
       -0.18800592 -0.24594048 -0.05865654 -0.025672402
000300 d5 c4 20 be fc 4e d5 3c 1d eb 08 be ec 90 14 bd
       -0.15700085 0.02603864 -0.13370939 -0.03627102
000310 22 9c 14 3d d0 52 8a 3d f6 8e 27 be 68 d0 01 3c
       0.036281712 0.067540765 -0.16363129 0.007923223
000320 56 42 ec bd c4 9f a2 bc 8f e7 87 bd fd 51 92 bd
       -0.1153609 -0.019851573 -0.06635963 -0.07144544
000330 fc 56 8b bb 5f 8d 92 3d e3 91 8d bd 4c f5 2d 3e
       -0.0042523127 0.07155871 -0.06912591 0.16988105
000340 90 23 ad 3d 51 53 d6 3c 9e 2f c0 3d af 6c a9 bd
       0.08454049 0.026162775 0.09384082 -0.08272683
000350 73 91 26 be 28 0e 2a be cc 4b 1e be 80 9f 31 3a
       -0.16266422 -0.16606963 -0.15458602 0.00067757815
000360 ec d7 e6 3c 60 92 0b 3e fa 9f dd bd fc 83 35 3d
       0.028179131 0.13630056 -0.10821529 0.044315323
000370 a8 69 93 bd 71 67 8a bd 21 e1 06 bd 84 14 27 3e
       -0.07197887 -0.06758011 -0.032929543 0.1631642
000380 15 73 1c bd 5e 85 e0 bd 82 2e 54 be 00 ff ef 3d
       -0.03819569 -0.10962938 -0.20720866 0.11718559
000390 3a 30 fb bd 68 b7 07 3e 5c fe 79 bc e8 bb b9 bd
       -0.12265058 0.13253558 -0.015258398 -0.090690434
0003a0 54 b2 c4 3c 60 9e 67 3b 40 28 e1 bb b5 9c 01 bd
       0.024010815 0.0035342202 -0.0068712533 -0.031643588
0003b0 1a 5f 57 bd 2e 83 6f bd a6 f2 dc 3d 80 ba 16 bb
       -0.05258093 -0.058474712 0.10788469 -0.0022999346
0003c0 90 35 1b 3b ef e3 04 3e c9 2b a2 bd 40 ee 13 ba
       0.0023683049 0.12977575 -0.079185076 -0.0005643107
0003d0 74 e5 13 3e eb 20 9f bd a5 8b 9e 3d 06 d3 36 bd
       0.14442998 -0.077699505 0.07741479 -0.04463484
0003e0 38 4e 00 3e 89 b3 58 3d 21 d3 00 be 8a f5 4c be
       0.12529838 0.052905593 -0.1258054 -0.2001554
0003f0 44 1e bf bc 82 20 3b be 10 d6 e3 bd 3f 50 20 bd
       -0.023329861 -0.1827412 -0.111248136 -0.03913903

layer2.bias f4 [32]
000000 14 97 08 bb a8 2b c6 3a 29 95 2b 3a f8 bb 34 3a
       -0.0020842003 0.0015119212 0.0006545359 0.00068944646
000010 1c 3e 0e 3a 7e 50 f7 39 22 b0 5d 3a c6 04 c8 39
       0.0005426125 0.00047171483 0.0008456727 0.0003815053
000020 94 2d 13 ba 97 57 f5 ba 77 16 14 ba b0 4e 06 38
       -0.00056143967 -0.001871812 -0.00056490995 3.2021373e-05
000030 04 7a cb 3a 52 84 40 38 78 49 48 b9 20 69 fa b8
       0.0015524034 4.58996e-05 -0.00019100856 -0.0001194051
000040 90 31 8e 3a 56 09 99 3a 6e 67 35 bb 12 79 f1 39
       0.0010848511 0.0011675756 -0.0027680057 0.00046057306
000050 c2 31 c3 b9 71 d0 a9 b9 17 2e be 3a 24 d3 f8 39
       -0.0003723037 -0.00032389493 0.0014509585 0.00047459558
000060 58 a4 e4 39 ba 99 e8 b9 40 72 65 ba b0 37 43 b9
       0.00043609994 -0.00044365023 -0.00087526813 -0.00018617394
000070 dc 9f 91 38 ac b3 69 39 48 ab 97 3a b0 4a e1 b8
       6.943915e-05 0.00022287545 0.0011571432 -0.00010742748

layer3.weight f4 [2, 32]
000000 d2 78 02 bd 1c cb 55 3d 7e 75 c6 3d 4c 1d 9a be
       -0.031853504 0.052195653 0.096903786 -0.30100477
000010 9a 65 83 be eb 93 79 be db e2 c1 bc b2 fe 0a bd
       -0.25663453 -0.24372832 -0.023667743 -0.033934303
000020 3e e1 89 3e dc a4 65 be 10 89 6f 3c 2e 78 3f 3e
       0.2692966 -0.2242617 0.014620081 0.18698189
000030 f5 f9 8c be 40 40 75 bc f2 de b0 3e 7e 08 3f 3e
       -0.27534452 -0.014968932 0.34545094 0.18655583
000040 d6 d5 1e be 80 2e 4c be 0c 2a 29 3d 23 58 4b 3e
       -0.1551126 -0.19939613 0.041299865 0.1985784
000050 68 6a d5 3c f0 62 da 3c ad 49 00 3e 6e 55 85 3e
       0.026051715 0.026658505 0.12528105 0.2604174
000060 fb b2 0d be a7 b8 f4 bd 95 d6 1b be ba b1 59 bd
       -0.13837807 -0.11949282 -0.15218575 -0.05314801
000070 03 a0 4b 3d 42 81 4c be 20 16 04 3e 60 02 52 3d
       0.049713146 -0.19971183 0.12899065 0.051271796
000080 60 de db 3b 22 14 83 3d 43 69 16 be 7a 16 07 be
       0.006709859 0.064003244 -0.14688592 -0.13192168
000090 cc 26 03 be ef e0 02 3d 88 37 16 bd 81 ed 0b 3e
       -0.12807769 0.031952795 -0.036674052 0.1366482
0000a0 af 06 b9 3c e2 e5 80 3e 3e d4 bf 3d 2a 63 fe bd
       0.022586195 0.25175387 0.09366654 -0.12421258
0000b0 c9 28 17 3e a4 ed 11 be bc 13 db be 80 65 ed ba
       0.14761652 -0.14250809 -0.42788494 -0.0018111914
0000c0 ab 2d 03 be 16 7d d5 3d 18 6e 44 be be 11 33 be
       -0.1281039 0.10424249 -0.19182622 -0.17487237
0000d0 a4 6e fb bd b0 0d a2 bd ae 35 92 be 0d 7b fa bd
       -0.122769624 -0.07912767 -0.2855658 -0.12230501
0000e0 fe 64 ec bd 3e bf 8b be ff c4 41 be 8f ae bb be
       -0.115427 -0.27294344 -0.18922804 -0.36656615
0000f0 4b 55 3d 3d b5 fb dc 3d 94 bd a3 be cf 1e 20 3e
       0.04622392 0.10790197 -0.31980574 0.15636753

layer3.bias f4 [2]
000000 5e 08 aa 3d 5e 08 aa bd
       0.08302377 -0.08302377

batch_norm1.weight f4 [64]
000000 8c d7 7c 3f 20 54 6e 3f 43 97 81 3f 92 a1 75 3f
       0.987664 0.93097115 1.0124286 0.9594966
000010 7a 81 7d 3f 0a 18 7d 3f a6 d2 7c 3f 44 0c 80 3f
       0.9902569 0.98864806 0.98758924 1.0003743
000020 ec 3f 80 3f a4 24 84 3f 00 51 7b 3f 7e 13 7f 3f
       1.0019507 1.0323682 0.9817047 0.9963912
000030 92 e8 80 3f f5 d5 81 3f d4 e4 78 3f 73 9f 86 3f
       1.0070975 1.014342 0.97224164 1.051741
000040 8a ad 80 3f da 72 7f 3f 7c cb 80 3f 48 ad 78 3f
       1.005296 0.99784625 1.0062099 0.97139406
000050 98 33 80 3f 14 67 81 3f 0a e6 81 3f 22 09 80 3f
       1.0015745 1.0109582 1.0148327 1.0002787
000060 29 24 7c 3f a8 8e 7e 3f 6c 7c 83 3f fb 6d 81 3f
       0.98492676 0.99436426 1.0272346 1.0111688
000070 65 16 80 3f 3d 90 7d 3f 70 f2 81 3f 06 0f 7c 3f
       1.0006834 0.99048215 1.0152111 0.98460424
000080 b0 73 7c 3f e2 b3 82 3f 08 72 7f 3f 18 a2 80 3f
       0.98614025 1.0211146 0.9978337 1.0049467
000090 fc 33 7c 3f 76 76 81 3f 91 41 7b 3f 96 c8 82 3f
       0.9851682 1.0114276 0.9814692 1.0217464
0000a0 01 11 7f 3f 07 60 7f 3f 2e 07 80 3f 46 4d 77 3f
       0.9963532 0.997559 1.0002191 0.96602285
0000b0 36 22 7e 3f 63 87 81 3f 6e e4 7a 3f 6a a0 80 3f
       0.9927095 1.0119442 0.98004806 1.0048954
0000c0 ca 40 7f 3f ef 04 7f 3f 12 d6 84 3f 97 63 80 3f
       0.99708235 0.99616903 1.0377829 1.0030392
0000d0 b0 55 79 3f 2e ed 78 3f 3d 73 82 3f b6 00 80 3f
       0.97396374 0.9723691 1.0191418 1.0000217
0000e0 0e 04 85 3f ca 4f 7c 3f 36 c9 7d 3f 00 6d 79 3f
       1.0391862 0.9855925 0.9913515 0.97431946
0000f0 12 3b 7b 3f 3a 2b 80 3f 3e db 7b 3f b3 eb 86 3f
       0.9813701 1.0013192 0.9838141 1.054068

batch_norm1.bias f4 [64]
000000 6b 72 9f bb cb af 41 bd c0 5e a5 bb c8 b0 13 bd
       -0.0048659346 -0.04728679 -0.0050466955 -0.036057264
000010 be 8e 46 bc 75 8f 2a bc 7c 0e 29 bc 79 42 26 ba
       -0.012118993 -0.010410179 -0.010318395 -0.00063423027
000020 f8 b5 a8 3a fe bd c7 bc 2c 94 8e bc 31 e2 21 bb
       0.0012871614 -0.024382588 -0.017404638 -0.002470147
000030 b0 5d ac bc 2c e5 89 3b c7 35 b4 bc 42 7b 08 3c
       -0.021040767 0.0042082276 -0.0219983 0.008330168
000040 b1 55 1c 3b e8 f5 17 bb af 18 e5 bc 61 05 b3 bc
       0.0023854787 -0.0023187343 -0.027965872 -0.02185315
000050 a4 7a b1 bb 10 67 8b 3c ce e5 f2 3b 6a b6 c2 bb
       -0.005416231 0.017016917 0.0074126488 -0.0059421556
000060 8a 3b bf bc f6 bb 7b bc 23 3b f0 3c d0 6a b4 bb
       -0.02334382 -0.015364638 0.029325074 -0.005505897
000070 c3 4b 02 bd dc 95 47 bc 9a 4d 2f 3c cd 81 5d bc
       -0.031810533 -0.012181725 0.010699654 -0.013519716
000080 e2 11 86 bc 73 78 ab 3b 8b 3b 66 3b ec b5 3c 3c
       -0.016365949 0.0052328645 0.0035130705 0.011517983
000090 3f 49 90 bc 77 a2 ca bc 16 35 d7 bc 04 ae 8a 3c
       -0.017613051 -0.024735672 -0.02627043 0.01692868
0000a0 d1 0f b8 bc a5 ea 2f bc 27 a5 03 3c 50 be f9 bc
       -0.02246848 -0.010737096 0.008034981 -0.030486256
0000b0 dc 3c af 3c e9 cd 2c 3c ea 8a e6 bc 6a 3c ec bc
       0.021391325 0.01054714 -0.028142411 -0.028837401
0000c0 b2 df a0 bb cb 1e 04 bc 71 e5 49 3c 84 cc 7e 3c
       -0.004909479 -0.008063982 0.0123227695 0.01555169
0000d0 d5 f6 ca bc cd de 12 bd 40 c1 3e 3c ab 66 11 bc
       -0.024775902 -0.03585701 0.011642754 -0.008874576
0000e0 c6 f9 43 3b 50 19 c9 ba 58 42 6a bb 0a a5 c8 bc
       0.0029903515 -0.0015342627 -0.003574511 -0.02449276
0000f0 90 12 74 bb 1c 3a 4a 3a 41 26 77 bc 08 ad 0c 3d
       -0.003724251 0.00077143474 -0.015084804 0.034344703

batch_norm1.running_mean f4 [64]
000000 00 00 00 00 00 00 00 00 00 00 00 00 00 00 00 00
       0.0 0.0 0.0 0.0
000010 00 00 00 00 00 00 00 00 00 00 00 00 00 00 00 00
       0.0 0.0 0.0 0.0
000020 00 00 00 00 00 00 00 00 00 00 00 00 00 00 00 00
       0.0 0.0 0.0 0.0
000030 00 00 00 00 00 00 00 00 00 00 00 00 00 00 00 00
       0.0 0.0 0.0 0.0
000040 00 00 00 00 00 00 00 00 00 00 00 00 00 00 00 00
       0.0 0.0 0.0 0.0
000050 00 00 00 00 00 00 00 00 00 00 00 00 00 00 00 00
       0.0 0.0 0.0 0.0
000060 00 00 00 00 00 00 00 00 00 00 00 00 00 00 00 00
       0.0 0.0 0.0 0.0
000070 00 00 00 00 00 00 00 00 00 00 00 00 00 00 00 00
       0.0 0.0 0.0 0.0
000080 00 00 00 00 00 00 00 00 00 00 00 00 00 00 00 00
       0.0 0.0 0.0 0.0
000090 00 00 00 00 00 00 00 00 00 00 00 00 00 00 00 00
       0.0 0.0 0.0 0.0
0000a0 00 00 00 00 00 00 00 00 00 00 00 00 00 00 00 00
       0.0 0.0 0.0 0.0
0000b0 00 00 00 00 00 00 00 00 00 00 00 00 00 00 00 00
       0.0 0.0 0.0 0.0
0000c0 00 00 00 00 00 00 00 00 00 00 00 00 00 00 00 00
       0.0 0.0 0.0 0.0
0000d0 00 00 00 00 00 00 00 00 00 00 00 00 00 00 00 00
       0.0 0.0 0.0 0.0
0000e0 00 00 00 00 00 00 00 00 00 00 00 00 00 00 00 00
       0.0 0.0 0.0 0.0
0000f0 00 00 00 00 00 00 00 00 00 00 00 00 00 00 00 00
       0.0 0.0 0.0 0.0

batch_norm1.running_var f4 [64]
000000 00 00 80 3f 00 00 80 3f 00 00 80 3f 00 00 80 3f
       1.0 1.0 1.0 1.0
000010 00 00 80 3f 00 00 80 3f 00 00 80 3f 00 00 80 3f
       1.0 1.0 1.0 1.0
000020 00 00 80 3f 00 00 80 3f 00 00 80 3f 00 00 80 3f
       1.0 1.0 1.0 1.0
000030 00 00 80 3f 00 00 80 3f 00 00 80 3f 00 00 80 3f
       1.0 1.0 1.0 1.0
000040 00 00 80 3f 00 00 80 3f 00 00 80 3f 00 00 80 3f
       1.0 1.0 1.0 1.0
000050 00 00 80 3f 00 00 80 3f 00 00 80 3f 00 00 80 3f
       1.0 1.0 1.0 1.0
000060 00 00 80 3f 00 00 80 3f 00 00 80 3f 00 00 80 3f
       1.0 1.0 1.0 1.0
000070 00 00 80 3f 00 00 80 3f 00 00 80 3f 00 00 80 3f
       1.0 1.0 1.0 1.0
000080 00 00 80 3f 00 00 80 3f 00 00 80 3f 00 00 80 3f
       1.0 1.0 1.0 1.0
000090 00 00 80 3f 00 00 80 3f 00 00 80 3f 00 00 80 3f
       1.0 1.0 1.0 1.0
0000a0 00 00 80 3f 00 00 80 3f 00 00 80 3f 00 00 80 3f
       1.0 1.0 1.0 1.0
0000b0 00 00 80 3f 00 00 80 3f 00 00 80 3f 00 00 80 3f
       1.0 1.0 1.0 1.0
0000c0 00 00 80 3f 00 00 80 3f 00 00 80 3f 00 00 80 3f
       1.0 1.0 1.0 1.0
0000d0 00 00 80 3f 00 00 80 3f 00 00 80 3f 00 00 80 3f
       1.0 1.0 1.0 1.0
0000e0 00 00 80 3f 00 00 80 3f 00 00 80 3f 00 00 80 3f
       1.0 1.0 1.0 1.0
0000f0 00 00 80 3f 00 00 80 3f 00 00 80 3f 00 00 80 3f
       1.0 1.0 1.0 1.0

batch_norm2.weight f4 [32]
000000 a8 43 59 3f 05 04 9a 3f 3e 81 94 3f 88 ad 78 3f
       0.8486886 1.2032477 1.1601942 0.9713979
000010 00 67 77 3f ed e0 74 3f c0 81 92 3f 17 79 7d 3f
       0.9664154 0.9565571 1.1445847 0.99012893
000020 34 8d 73 3f 9d 3e 74 3f de 48 99 3f d6 66 81 3f
       0.95137334 0.9540804 1.1975362 1.0109508
000030 ec bc 74 3f c0 34 86 3f ef aa 85 3f b6 4f 68 3f
       0.9560077 1.0484848 1.044279 0.9074663
000040 6a 98 58 3f 88 ac 75 3f 16 f9 97 3f 40 0c 93 3f
       0.84607565 0.95966387 1.187289 1.1488113
000050 00 52 98 3f 4a 31 8b 3f ca 29 97 3f ae e3 88 3f
       1.1900024 1.0874417 1.1809628 1.0694482
000060 34 1b 7c 3f 86 a2 9a 3f 34 01 9b 3f b7 c8 8b 3f
       0.9847901 1.2080848 1.2109742 1.0920628
000070 a2 34 5b 3f 1d 95 75 3f e4 35 89 3f a2 a6 61 3f
       0.85627186 0.95930654 1.0719571 0.88144886

batch_norm2.bias f4 [32]
000000 fc d8 1d be 28 c7 67 3e ee 4f 35 3e 4e 44 e7 bc
       -0.15414804 0.22634566 0.17706272 -0.028230812
000010 dc 91 e2 bc 28 26 31 bd d4 6e 27 3e a8 08 37 bc
       -0.027657442 -0.04324928 0.16350871 -0.011171497
000020 4a 32 0e bd 6a 8e 47 bd 26 91 5a 3e 70 45 cd 3c
       -0.034715928 -0.0487198 0.21344432 0.025057524
000030 40 8e 40 bd ae 3b 9d 3d b6 37 85 3d 58 31 9d bd
       -0.04701066 0.076773986 0.06504767 -0.07675427
000040 8a 11 22 be 86 d2 20 bd 9c f2 43 3e cf 6b 2e 3e
       -0.15827003 -0.03926327 0.19135517 0.17033313
000050 6b 5b 45 3e ee 8f d5 3d 58 a2 4c 3e 52 24 b9 3d
       0.19273154 0.10427843 0.19983804 0.09040131
000060 20 f1 3b 3a e6 69 65 3e 68 36 66 3e 88 20 d2 3d
       0.00071694143 0.22403678 0.22481692 0.10260111
000070 88 bb 16 be b9 9c 1e bd c8 90 c2 3d 84 ba f9 bd
       -0.14719975 -0.03872368 0.09500271 -0.12193778

batch_norm2.running_mean f4 [32]
000000 00 00 00 00 00 00 00 00 00 00 00 00 00 00 00 00
       0.0 0.0 0.0 0.0
000010 00 00 00 00 00 00 00 00 00 00 00 00 00 00 00 00
       0.0 0.0 0.0 0.0
000020 00 00 00 00 00 00 00 00 00 00 00 00 00 00 00 00
       0.0 0.0 0.0 0.0
000030 00 00 00 00 00 00 00 00 00 00 00 00 00 00 00 00
       0.0 0.0 0.0 0.0
000040 00 00 00 00 00 00 00 00 00 00 00 00 00 00 00 00
       0.0 0.0 0.0 0.0
000050 00 00 00 00 00 00 00 00 00 00 00 00 00 00 00 00
       0.0 0.0 0.0 0.0
000060 00 00 00 00 00 00 00 00 00 00 00 00 00 00 00 00
       0.0 0.0 0.0 0.0
000070 00 00 00 00 00 00 00 00 00 00 00 00 00 00 00 00
       0.0 0.0 0.0 0.0

batch_norm2.running_var f4 [32]
000000 00 00 80 3f 00 00 80 3f 00 00 80 3f 00 00 80 3f
       1.0 1.0 1.0 1.0
000010 00 00 80 3f 00 00 80 3f 00 00 80 3f 00 00 80 3f
       1.0 1.0 1.0 1.0
000020 00 00 80 3f 00 00 80 3f 00 00 80 3f 00 00 80 3f
       1.0 1.0 1.0 1.0
000030 00 00 80 3f 00 00 80 3f 00 00 80 3f 00 00 80 3f
       1.0 1.0 1.0 1.0
000040 00 00 80 3f 00 00 80 3f 00 00 80 3f 00 00 80 3f
       1.0 1.0 1.0 1.0
000050 00 00 80 3f 00 00 80 3f 00 00 80 3f 00 00 80 3f
       1.0 1.0 1.0 1.0
000060 00 00 80 3f 00 00 80 3f 00 00 80 3f 00 00 80 3f
       1.0 1.0 1.0 1.0
000070 00 00 80 3f 00 00 80 3f 00 00 80 3f 00 00 80 3f
       1.0 1.0 1.0 1.0
