models/server_model.pt (torch, 344719 bytes, 14 tensors)

layer1.weight f4 [64, 1060]
0.08017457 -0.0651102 0.018912993 0.027601626 -0.059269965 -0.043621913 -0.07976467 0.0071796626
-0.014291606 -0.03645255 -0.047337685 -0.033880804 -0.011329218 0.009419812 -0.021575706 0.086393446
-0.011677277 -0.0013775029 0.036362015 0.03532189 -0.0038023721 0.007424213 -0.030706728 0.034629557
0.010158273 0.06249072 -0.04453685 -0.08016823 0.0074330084 -0.041225687 0.03861282 -0.0022598505
0.051025815 0.026792563 0.008531506 0.055738077 0.0009443944 -0.07382019 0.0766013 0.025874797
-0.08939962 -0.0035278727 0.07438127 -0.022722656 -0.025900025 0.030372461 -0.052422978 0.0030500933
-0.040666193 -0.035812333 -0.007445938 0.055733338 0.00015526637 -0.022842944 0.023104185 -0.06172185
-0.0011786819 -0.12052851 -0.045964703 0.020952845 0.02401872 0.00048945367 -0.005764687 -0.033092305
-0.049202055 -0.09939319 -0.002251823 0.021389022 -0.014966153 -0.009150419 -0.024159996 -0.05706832
0.110478684 0.0102741625 0.086805664 -0.032916747 0.0066048335 -0.0056470605 0.03941472 -0.047525752
0.030191716 0.023972176 -0.07524773 0.043881387 -0.01674312 0.0040979367 -0.008991178 -0.08334953
0.05565539 0.063566595 -0.029885113 0.09700556 0.037724514 -0.091922946 -0.06970585 0.119160086
-0.012277274 -0.07223731 0.027630972 -0.024105811 0.11322107 0.03206236 0.10469615 0.048882704
-0.048767008 0.014375007 0.053639606 0.04314502 0.010832932 0.062472556 0.007816697 -0.038619686
-0.00829285 0.08904122 0.09501827 0.0028110535 -0.007403886 0.053108066 -0.0049870256 -0.007845977
0.08449538 0.04121707 0.030138785 -0.039156064 0.0180773 -0.017441738 0.037845522 0.018357962
0.117096946 -0.106648736 0.111190155 0.036778245 0.028838696 0.07658459 0.005756406 -0.043925703
-0.058553718 0.012120886 0.0037584445 0.008621443 -0.047890976 -0.06148841 -0.0016301759 0.09017699
0.034851994 -0.020644398 -0.0525661 0.022439403 0.07801844 -0.026555784 0.02796062 0.030451639
0.008303991 -0.0573316 -0.03896048 -0.020102132 -0.047051698 0.069635555 -0.03912214 -0.074980855
-0.07324992 -0.047387358 -0.007814166 -0.024997754 0.05689973 0.007439738 0.07909854 -0.046511576
0.017652508 -0.015648179 0.009396285 0.07398323 0.051436044 0.02139739 -0.01748255 0.019487232
-0.035835024 0.0028089294 -0.039881572 -0.017101448 0.074859455 0.034656253 -0.049065426 0.002537666
-0.036284246 0.012256062 -0.06297019 0.00346414 -0.05395896 0.050348394 -0.08270129 0.10627772
-0.028763615 -0.06052737 0.08132079 -0.0054128403 0.018615473 -0.024474125 0.0339387 0.045895416
-0.05466506 -0.060724273 -0.010723811 -0.018569855 -0.054126177 0.0027440432 -0.011842726 0.013601346
-0.038505945 -0.020118535 -0.019708466 -0.066740036 0.035614595 -0.10005608 -0.0040754275 0.052473485
-0.06723205 -0.0754659 -0.08495672 -0.01579336 -0.06874025 0.07818746 0.07662405 -0.06291657
0.005616568 -0.020593897 0.045302693 -0.022661319 0.021215547 0.034192193 -0.08139126 0.122523084
-0.04720582 0.022528045 -0.04175748 0.10334979 0.090711266 0.026002474 -0.043892007 0.050149262
-0.031555463 -0.06841857 -0.0075716176 -0.09851197 -0.07653657 -0.018748675 -0.030483466 0.049111295
-0.0675644 0.027252117 0.019529175 -0.013343382 -0.015329465 0.0661065 -0.005397618 -0.015078202
00000000: 9132 a43d 7f58 85bd 6cef 9a3c ce1c e23c
00000010: 10c5 72bd e4ac 32bd a95b a3bd 6043 eb3b
00000020: 5727 6abc 454f 15bd 29e5 41bd 99c6 0abd
00000030: 2f9e 39bc 8e55 1a3c 89bf b0bc 0cef b03d
00000040: 0d52 3fbc 548d b4ba 56f0 143d b0ad 103d
00000050: 3831 79bb d046 f33b ad8c fbbc b9d7 0d3d
00000060: e36e 263c 45f6 7f3d 466c 36bd 3e2f a4bd
00000070: 9890 f33b 44dc 28bd 7a28 1e3d 001a 14bb
00000080: 7200 513d 147c db3c bbc7 0b3c 9c4d 643d
00000090: 3c91 773a 0a2f 97bd 24e1 9c3d 62f7 d33c
000000a0: 2617 b7bd e233 67bb 3555 983d dd24 babc
000000b0: 4a2c d4bc abcf f83c 7ab9 56bd 13e4 473b
000000c0: 9891 26bd f4af 12bd 0efd f3bb a448 643d
000000d0: 00cf 2239 2021 bbbc fd44 bd3c 0dd0 7cbd
000000e0: 007e 9aba a7d7 f6bd 7c45 3cbd 4da5 ab3c
000000f0: e8c2 c43c ae4e 003a b3e5 bcbb cc8b 07bd
00000100: 1888 49bd a88e cbbd 5293 13bb 0838 af3c
00000110: 9834 75bc a4eb 15bc 2feb c5bc 79c0 69bd
00000120: a642 e23d f654 283c 2bc7 b13d b6d3 06bd
00000130: 5c6d d83b fa0a b9bb 5471 213d 5daa 42bd
00000140: 9e54 f73c 4c61 c43c 7b1b 9abd f8bc 333d
00000150: de28 89bc fc47 863b bc4f 13bc 29b3 aabd
00000160: e8f6 633d 342f 823d a0d1 f4bc daaa c63d
00000170: 0585 1a3d 1942 bcbd f1c1 8ebd 340a f43d
00000180: 9f26 49bc 28f1 93bd 595a e23c 8d79 c5bc
00000190: 73e0 e73d d253 033d ef6a d63d 3b39 483d
000001a0: eabf 47bd 2685 6b3c 34b5 5b3d d5b8 303d
000001b0: 9c7c 313c 39e3 7f3d 9a11 003c ad2f 1ebd
000001c0: bcde 07bc 3e5b b63d f098 c23d a739 383b
000001d0: 4c9c f2bb d887 593d 346a a3bb 6a8c 00bc
000001e0: ea0b ad3d 3bd3 283d 9de5 f63c 1c62 20bd
000001f0: d916 943c fae1 8ebc e803 1b3d 7063 963c
00000200: 86d0 ef3d a76a dabd aab7 e33d c9a4 163d
00000210: 213f ec3c 62d8 9c3d 3ca0 bc3b 70eb 33bd
00000220: 06d6 6fbd ae96 463c 3c50 763b f440 0d3c
00000230: 5429 44bd 45db 7bbd a0ab d5ba b7ae b83d
00000240: f7c0 0e3d 711e a9bc 8d4f 57bd d7d2 b73c
00000250: 22c8 9f3d 848b d9bc ac0d e53c b775 f93c
00000260: 760d 083c 8ad4 6abd 0695 1fbd 3aad a4bc
00000270: 48b9 40bd 169d 8e3d 893e 20bd 908f 99bd
00000280: 0e04 96bd 3f19 42bd fd06 00bc 17c8 ccbc
00000290: b10f 693d 0cc9 f33b 6afe a13d ec82 3ebd
000002a0: fe9b 903c 9c30 80bc e0f2 193c 8584 973d
000002b0: 9aae 523d 9449 af3c 9137 8fbc b0a3 9f3c
000002c0: bfc7 12bd 0416 383b dc5a 23bd 5618 8cbc
000002d0: ea4f 993d b7f3 0d3d d4f8 48bd f84e 263b
000002e0: ca9e 14bd a6cd 483c 84f6 80bd a006 633b
000002f0: 1204 5dbd 1e3a 4e3d 4b5f a9bd 22a8 d93d
00000300: aca1 ebbc 8ceb 77bd 848b a63d 325e b1bb
00000310: 7a7f 983c f67d c8bc 4e03 0b3d d5fc 3b3d
00000320: 78e8 5fbd 04ba 78bd ecb2 2fbc cf1f 98bc
00000330: 69b3 5dbd 68d5 333b fe07 42bc 2ed8 5e3c
00000340: 69b8 1dbd a0cf a4bc a673 a1bc 00af 88bd
00000350: 9ce0 113d 34ea ccbd 2a8b 85bb 70ee 563d
00000360: f5b0 89bd de8d 9abd cafd adbd 1461 81bc
00000370: b0c7 8cbd bf20 a03d 12ed 9c3d 67da 80bd
00000380: 300b b83b 88b4 a8bc 518f 393d 3ba4 b9bc
00000390: 3acc ad3c 1d0d 0c3d 76b0 a6bd 62ed fa3d
000003a0: e45a 41bd bc8c b83c e409 2bbd 0ea9 d33d
000003b0: d4c6 b93d 2403 d53c 1bc8 33bd 5069 4d3d
000003c0: 4d40 01bd 091f 8cbd 551b f8bb a5c0 c9bd
000003d0: 35bf 9cbd d296 99bc 76b8 f9bc ed28 493d
000003e0: 345f 8abd d53f df3c a6fb 9f3c 339e 5abc
000003f0: 7028 7bbc d862 873d 80de b0bb 900a 77bc

layer1.bias f4 [64]
-0.000834235 0.001420204 0.0015017044 0.000456005 -0.00036844861 -0.0033478255 -0.002275623 0.0040392317
0.001465089 -0.0006817647 -0.0019383543 8.3983505e-05 -0.00058939005 0.0021428745 -0.0060608117 -0.00322005
-0.0011700266 0.0015747764 0.0031636148 -0.0024618325 0.00012304258 0.0015364572 -0.0022274153 0.00088668667
-0.0018105461 0.0035274988 -0.0012388385 -0.00048521825 -0.0034983424 0.0007303599 -0.0022696909 -0.0005506319
0.0006133547 0.0004154269 -0.003005593 -0.0001481371 0.004595492 0.0029547494 -0.0060339402 -0.0009187482
-0.0023049014 0.000903244 -0.0028018407 -6.855215e-05 -0.00113138 0.002279448 -0.00074229145 0.00019476126
-0.0035683094 -0.0013779034 -0.0017201649 0.00050230697 0.00021110725 -0.001967902 0.0005429064 -0.00012268743
-0.0029074284 0.00039834087 0.003355966 0.0034679815 -0.0011890732 -0.0016701643 0.00020023827 -0.0012220507
00000000: 90b0 5aba 2326 ba3a d7d4 c43a f413 ef39
00000010: 562c c1b9 3167 5bbb 9e22 15bb 885b 843b
00000020: 3b08 c03a 74b8 32ba 6110 feba 4d20 b038
00000030: 4c81 1aba 786f 0c3b c699 c6bb 7907 53bb
00000040: 945b 99ba ba68 ce3a a654 4f3b b256 21bb
00000050: fe04 0139 f362 c93a d4f9 11bb 8970 683a
00000060: d94f edba 9c2d 673b 8660 a2ba e464 feb9
00000070: 7244 65bb a075 3f3a 18bf 14bb 4858 10ba
00000080: 8ac9 203a a8cd d939 7cf9 44bb 4055 1bb9
00000090: c895 963b 78a4 413b 5cb8 c5bb 26d8 70ba
000000a0: d40d 17bb aec7 6c3a 169f 37bb a8c3 8fb8
000000b0: d04a 94ba cb62 153b 5696 42ba d438 4c39
000000c0: 4cda 69bb c49a b4ba 2877 e1ba 40ad 033a
000000d0: ac5c 5d39 ebf7 00bb d551 0e3a a8a5 00b9
000000e0: 8e8a 3ebb 68d8 d039 c4ef 5b3b 1347 633b
000000f0: adda 9bba 6ae9 daba 0df7 5139 382d a0ba

layer2.weight f4 [32, 64]
-0.106674 -0.2221105 0.06015373 -0.04508422 0.060564015 0.029767355 -0.05610013 0.06658913
0.013720438 0.12752956 -0.0654069 0.04392521 0.022329584 -0.06436835 -0.16733916 -0.06897247
-0.06377919 -0.016338438 0.041705802 0.04511073 0.12765369 0.027760394 -0.0033251345 -0.04043464
0.10296507 0.019896694 -0.20277798 -0.03822413 0.07125624 -0.16254096 0.017132938 0.060568653
-0.10386479 -0.08585009 -0.008947346 0.118428156 -0.16992818 -0.10039029 0.015101798 -0.009414837
0.03078857 0.0488151 -0.114644855 0.12418761 0.019558385 0.0061725783 -0.07340989 -0.16330002
-0.08926349 0.059249032 0.15682182 0.047634132 -0.035845965 -0.04029385 0.03997818 -0.1000904
-0.018323138 -0.03136205 -0.05197347 -0.012858109 -0.027773235 -0.0070517007 -0.037820537 0.02947713
0.16853982 0.20349194 0.054630037 -0.051340505 -0.012341246 0.038393706 0.121208 0.03370873
-0.012980871 0.012263037 0.0089484975 0.099941276 -0.13686241 0.026855487 0.02661784 -0.087625295
0.0858823 0.05287954 -0.14973547 0.07007843 0.08364588 -0.1369276 -0.080900356 0.16168761
0.0046496578 -0.057446346 0.049727894 0.01779297 -0.12075349 0.018009914 -0.09278856 -0.06874321
-0.023141379 0.09456864 0.024749514 -0.046717636 -0.1472364 0.0037401393 -0.042902503 0.13790484
-0.24214913 -0.05755935 -0.009614725 0.20414725 -0.065259375 -0.015966047 -0.115948685 -0.0960398
-0.14686911 -0.020614631 0.07247341 0.11525375 -0.06613057 -0.14582874 0.10663988 0.007280443
-0.06374844 0.14423524 0.20762031 -0.042998016 -0.14024061 -0.015203632 0.08608812 -0.077426076
0.15855572 0.00015419722 0.008681022 0.013146646 -0.0126828365 0.043141767 -0.20355907 -0.10243818
0.11595671 -0.08446856 -0.03598847 0.23538838 0.055479348 -0.025090028 0.028051011 0.0011258908
-0.059255816 -0.014371348 -0.033927888 0.04961723 0.16644475 0.016106196 -0.02622857 -0.18744716
0.09154707 0.10661742 -0.27269214 0.17644955 0.04704988 -0.06942749 0.20046395 -0.056507412
0.14185496 -0.031904798 0.1609589 -0.11553478 0.14830047 0.06613986 0.02743785 -0.12677146
-0.0031490568 -0.10165031 -0.11270109 0.18533924 -0.043908644 0.04015378 0.005709097 -0.06050948
0.09362275 -0.039569084 0.084386915 -0.09266536 0.04282255 0.19219285 0.160674 -0.036911197
0.19465446 0.1478939 0.15065075 0.15713534 -0.23252006 0.007102579 0.028783266 0.19392896
-0.05543646 -0.07410073 -0.046539918 0.029048573 0.01350713 0.0011984706 0.0006232485 -0.09097629
-0.006788112 0.059283443 0.04146105 -0.18101005 0.1471873 0.035274662 0.11169992 0.08821356
0.10779357 0.023012802 -0.021512337 -0.006762443 0.06527303 0.052365858 0.07172323 0.10379769
0.02772731 -0.04002256 0.09035918 -0.017451994 -0.07753921 0.036547266 -0.010963806 0.06355947
0.087452546 -0.05646089 0.08234133 0.059418425 -0.10501225 0.11189202 -0.04374127 0.1148718
0.020996181 -0.0067645498 -0.10350176 0.07359462 0.25395867 -0.042956583 -0.009685352 0.003447324
0.059913352 0.01795537 -0.048314407 -0.19638282 -0.07594615 0.13593344 0.05844516 0.16226164
-0.16233504 -0.013240628 -0.0076386556 -0.16604894 0.030674793 0.017451748 -0.016348775 0.007427147
00000000: e677 dabd ef70 63be c263 763d 3baa 38bd
00000010: f911 783d abda f33c 40c9 65bd e25f 883d
00000020: b0cb 603c 1c97 023e 0ef4 85bd ecea 333d
00000030: 88ec b63c 8ed3 83bd f55a 2bbe 7041 8dbd
00000040: aa9e 82bd 30d8 85bc b4d3 2a3d 07c6 383d
00000050: a6b7 023e c469 e33c 80ea 59bb cb9e 25bd
00000060: 5adf d23d 64fe a23c 08a5 4fbe e890 1cbd
00000070: cbee 913d 2371 26be 605a 8c3c d616 783d
00000080: 10b7 d4bd 2cd2 afbd e497 12bc 768a f23d
00000090: a701 2ebe 6d99 cdbd 886d 773c b040 1abc
000000a0: 5038 fc3c 58f2 473d ecca eabd 1356 fe3d
000000b0: e838 a03c 5743 ca3b ed57 96bd 1f38 27be
000000c0: c7cf b6bd 1daf 723d e695 203e 021c 433d
000000d0: 38d3 12bd 2a0b 25bd 29c0 233d 32fc ccbd
000000e0: 681a 96bc 7e75 00bd 22e2 54bd d1aa 52bc
000000f0: b284 e3bc f411 e7bb b5e9 1abd 067a f13c
00000100: b495 2c3e 3160 503e bfc3 5f3d 6c4a 52bd
00000110: f032 4abc b842 1d3d e63b f83d 2a12 0a3d
00000120: b8ad 54bc e8ea 483c b89c 123c 03ae cc3d
00000130: a925 0cbe 0a00 dc3c a80d da3c e474 b3bd
00000140: 0fe3 af3d 3798 583d 4154 19be 4885 8f3d
00000150: 884e ab3d c036 0cbe 16af a5bd 7091 253e
00000160: 285c 983b dc4c 6bbd 7aaf 4b3d 90c2 913c
00000170: 9b4d f7bd 8789 933c ee07 bebd 3dc9 8cbd
00000180: fd92 bdbc 34ad c13d 7ebf ca3c fe5a 3fbd
00000190: 24c5 16be 201d 753b 89ba 2fbd ed36 0d3e
000001a0: f1f5 77be 5ac3 6bbd 1487 1dbc fa0b 513e
000001b0: b5a6 85bd 3acb 82bc 8176 edbd 84b0 c4bd
000001c0: db64 16be 04e0 a8bc f06c 943d 280a ec3d
000001d0: 776f 87bd 2154 15be 0266 da3d c890 ee3b
000001e0: 8b8e 82bd 67b2 133e 6b9a 543e b01e 30bd
000001f0: 3c9b 0fbe a818 79bc f84e b03d 9091 9ebd
00000200: 6e5c 223e 00b0 2139 d83a 0e3c 0865 573c
00000210: accb 4fbc 6cb5 303d ca71 50be 1ccb d1bd
00000220: b67a ed3d dafd acbd a568 13bd a709 713e
00000230: 503e 633d 9a89 cdbc 3ccb e53c a092 933a
00000240: 3ab6 72bd cd75 6bbc f8f7 0abd 703b 4b3d
00000250: 7e70 2a3e 24f1 833c 4cdd d6bc 26f2 3fbe
00000260: 087d bb3d 3c5a da3d 4e9e 8bbe 31af 343e
00000270: 60b7 403d 0030 8ebd 6c46 4d3e 5174 67bd
00000280: 6d42 113e 9bae 02bd 69d2 243e 809d ecbd
00000290: 14dc 173e 5674 873d 58c5 e03c 61d0 01be
000002a0: 6860 4ebb 0a2e d0bd d4cf e6bd 92c9 3d3e
000002b0: 8dd9 33bd 4a78 243d 6013 bb3b cad8 77bd
000002c0: 49bd bf3d 3113 22bd 0cd3 ac3d 56c7 bdbd
000002d0: b366 2f3d 34ce 443e ba87 243e 3230 17bd
000002e0: 8053 473e 8071 173e 3144 1a3e 16e8 203e
000002f0: bd19 6ebe c0bc e83b e2ca eb3c 5095 463e
00000300: 5711 63bd 20c2 97bd a4a0 3ebd 46f7 ed3c
00000310: 024d 5d3c 0016 9d3a 8061 233a c751 babd
00000320: d06e debb 32d3 723d 10d3 293d b35a 39be
00000330: 44b8 163e 2a7c 103d edc2 e43d 50a9 b43d
00000340: e0c2 dc3d 5885 bc3c a43a b0bc 7c97 ddbb
00000350: dead 853d 957d 563d a1e3 923d e293 d43d
00000360: 6224 e33c b2ee 23bd 3c0e b93d 7cf7 8ebc
00000370: e1cc 9ebd 96b2 153d 89a1 33bc 782b 823d
00000380: 521a b33d 8943 67bd 92a2 a83d bc60 733d
00000390: aa10 d7bd a527 e53d 0c2a 33bd e841 eb3d
000003a0: 2f00 ac3c 28a9 ddbb bbf8 d3bd c7b8 963d
000003b0: df06 823e 3ef3 2fbd 50af 1ebc 80ec 613b
000003c0: b467 753d 2417 933c 54e5 45bd 9418 49be
000003d0: a889 9bbd 2332 0b3e 3164 6f3d ea27 263e
000003e0: 283b 26be 38ef 58bc b04d fabb bc08 2abe
000003f0: b449 fb3c f8f6 8e3c deed 85bc 6d5f f33b

layer2.bias f4 [32]
-0.00042615997 0.0008046929 -0.000248813 -0.00035458256 -3.15684e-05 -0.0019320096 -0.00030989377 -0.0005633653
-0.00052724854 -0.00051517953 -2.0383613e-05 -0.00031093316 0.0009942298 0.00018888652 0.00055186 0.0015076587
0.00083732576 0.0006609161 -0.0017799607 0.00040437886 0.0006181371 -0.00022382685 -0.002126812 0.002808134
0.00088483584 0.0017433374 0.00085596356 0.0020095073 -0.00044319252 -0.00014156703 -0.00035443058 -0.00024354002
00000000: 396e dfb9 07f2 523a 1e73 82b9 44e7 b9b9
00000010: 5068 04b8 7c3b fdba 3d79 a2b9 ceae 13ba
00000020: 0d37 0aba 1d0d 07ba 7afd aab7 be04 a3b9
00000030: d150 823a d70f 4639 b3aa 103a a29c c53a
00000040: fb7f 5b3a 5441 2d3a 924d e9ba d002 d439
00000050: 7b0a 223a 10b3 6ab9 fc61 0bbb ac08 383b
00000060: 54f4 673a b280 e43a be62 603a f0b1 033b
00000070: 4b5c e8b9 9c71 14b9 ded2 b9b9 c75e 7fb9

layer3.weight f4 [2, 32]
0.030747298 -0.3217031 0.3539806 0.026056413 0.06545751 0.14873523 0.0637493 0.33456406
0.28499165 0.23760647 0.13675147 0.028924882 0.17038858 -0.15150449 -0.00042915344 0.0050495453
0.045616195 0.23554134 0.18926314 0.057854354 -0.01965557 0.306951 -0.23665315 0.05822895
-0.09549189 0.04088115 0.26236767 -0.10590184 -0.055688605 -0.086881064 0.028146118 0.16841516
-0.11920574 0.03198592 -0.08891058 -0.1381898 -0.05698639 -0.38022274 0.2525827 0.25469005
-0.04743418 0.2482101 0.151606 -0.09805712 -0.018026255 -0.057708237 -0.19061363 -0.21860172
-0.39102843 0.20558777 -0.21877491 -0.065599024 -0.018905235 -0.02437739 -0.33500615 -0.069083214
-0.13627532 0.05353652 -0.3073179 0.227171 0.14388455 -0.018157938 0.25995708 0.08854101
00000000: c2e1 fb3c 45b6 a4be f23c b53e 4274 d53c
00000010: 960e 863d 0c4e 183e fe8e 823d fb4b ab3e
00000020: 6dea 913e 1c4f 733e 9408 0c3e e0f3 ec3c
00000030: 587a 2e3e fe23 1bbe 0000 e1b9 a876 a53b
00000040: 0cd8 3a3d c031 713e 32ce 413e b0f8 6c3d
00000050: b804 a1bc ae28 9d3e 3455 72be 7b81 6e3d
00000060: 4191 c3bd fe72 273d 0e55 863e 10e3 d8bd
00000070: bc19 64bd b3ee b1bd b092 e63c 0675 2c3e
00000080: 2422 f4bd ab03 033d c016 b6bd a081 0dbe
00000090: 906a 69bd 8eac c2be 8552 813e bc66 823e
000000a0: 584a 42bd ca2a 7e3e 9a3e 1b3e 2cd2 c8bd
000000b0: ccab 93bc 795f 6cbd 3830 43be 21d9 5fbe
000000c0: e134 c8be 9a85 523e 8806 60be c858 86bd
000000d0: 27df 9abc 18b3 c7bc ed85 abbe 807b 8dbd
000000e0: c28b 0bbe 1c49 5b3d c658 9dbe 849f 683e
000000f0: 7956 133e f5bf 94bc 1819 853e fd54 b53d

layer3.bias f4 [2]
0.07452779 -0.074527815
00000000: 07a2 983d 0aa2 98bd

batch_norm1.weight f4 [64]
0.9875164 0.9975251 0.98440695 0.99977195 1.024678 1.0011544 0.9889768 1.0192655
0.97389275 0.9814459 1.0151882 0.99012 1.0307229 0.98919904 0.9769223 1.0362238
1.0076523 0.98211855 1.0105178 1.0168142 0.96227384 0.9889698 1.0027734 1.0151055
1.0192051 1.0172436 1.0163723 1.0144396 1.0019789 1.0023654 1.0069708 0.95112896
0.9733552 0.9889738 1.0034243 0.9791701 1.0114138 1.0076143 0.98122525 0.98853004
1.0224535 0.9942926 1.0048428 0.98483837 1.0136405 0.96579325 0.9724799 1.0291789
0.99990475 1.0038996 0.99742573 0.9828987 1.0028423 1.0068339 1.0263151 0.99044645
1.0167277 0.99588823 1.0182073 0.96827877 1.0063002 1.0144182 0.99971974 1.0026609
00000000: e0cd 7c3f ce5d 7f3f 1802 7c3f 0ef1 7f3f
00000010: a628 833f d425 803f 952d 7d3f 4b77 823f
00000020: 0951 793f 0a40 7b3f b0f1 813f 8178 7d3f
00000030: baee 833f 263c 7d3f 9417 7a3f fba2 843f
00000040: c0fa 803f 1f6c 7b3f a658 813f f826 823f
00000050: 9457 763f 202d 7d3f e15a 803f faee 813f
00000060: 5075 823f 0a35 823f 7d18 823f 28d9 813f
00000070: d840 803f 824d 803f 6be4 803f 307d 733f
00000080: ce2d 793f 632d 7d3f 3570 803f e4aa 7a3f
00000090: 0276 813f 81f9 803f 9431 7b3f 4e10 7d3f
000000a0: c2df 823f f689 7e3f b09e 803f 5e1e 7c3f
000000b0: f9be 813f 3a3e 773f 71f4 783f 22bc 833f
000000c0: c2f9 7f3f c87f 803f 4b57 7f3f 409f 7b3f
000000d0: 235d 803f efdf 803f 4b5e 833f e68d 7d3f
000000e0: 2224 823f 88f2 7e3f 9e54 823f 1ee1 773f
000000f0: 72ce 803f 75d8 813f a2ed 7f3f 3157 803f

batch_norm1.bias f4 [64]
-0.010591273 0.013848608 -0.014793625 0.008476468 0.030346889 0.008569411 -0.008641542 -0.0014477498
-0.008550385 -0.0034408988 0.008111594 -0.0075244023 0.027328689 -0.031942163 -0.026842427 0.029698648
0.0065410226 0.0001923684 0.01027281 0.004507033 -0.03565035 -0.00632278 0.0011905087 0.024000859
0.021085326 0.012592044 0.027325893 0.0071382187 0.01003904 -0.003034885 0.005538497 -0.030114478
-0.022733795 -0.012402214 -0.0129048005 -0.0082760705 0.0048498716 0.0075348523 -0.016346926 -0.013989636
0.038928628 0.016090175 -0.0070320386 -0.018453527 0.007130987 -0.025063992 -0.023826404 0.014299769
0.006361632 0.0030323567 0.00437631 -0.017847372 -0.012602607 -0.006785861 0.022919564 -0.013890352
0.021036536 0.008787714 0.003944075 -0.010999108 0.0011388632 0.017419167 0.0054946123 0.0027566878
00000000: 0587 2dbc 46e5 623c f660 72bc e2e0 0a3c
00000010: 0a9a f83c b766 0c3c 4195 0dbc 6cc2 bdba
00000020: ea16 0cbc b480 61bb 7ee6 043c 438f f6bb
00000030: 6ae0 df3c c9d5 02bd a6e4 dbbc 944a f33c
00000040: 1356 d63b 80b6 4939 4a4f 283c bcaf 933b
00000050: 1a06 12bd 532f cfbb d80a 9c3a 739d c43c
00000060: 22bb ac3c dc4e 4e3c 8dda df3c b8e7 e93b
00000070: c97a 243c ece4 46bb 487c b53b a3b2 f6bc
00000080: 393c babc a832 4bbc a86e 53bc 5b98 07bc
00000090: aceb 9e3b ece6 f63b fde9 85bc c934 65bc
000000a0: a073 1f3d 8bcf 833c 046d e6bb da2b 97bc
000000b0: 0eab e93b 0053 cdbc 972f c3bc 9449 6a3c
000000c0: 3d75 d03b 81ba 463b 2667 8f3b a734 92bc
000000d0: 2a7b 4ebc ee5b debb cfc1 bb3c 5c94 63bc
000000e0: d054 ac3c 58fa 0f3c 4d3d 813b 9a35 34bc
000000f0: e845 953a a4b2 8e3c 260c b43b 8ca9 343b

batch_norm1.running_mean f4 [64]
0.0 0.0 0.0 0.0 0.0 0.0 0.0 0.0
0.0 0.0 0.0 0.0 0.0 0.0 0.0 0.0
0.0 0.0 0.0 0.0 0.0 0.0 0.0 0.0
0.0 0.0 0.0 0.0 0.0 0.0 0.0 0.0
0.0 0.0 0.0 0.0 0.0 0.0 0.0 0.0
0.0 0.0 0.0 0.0 0.0 0.0 0.0 0.0
0.0 0.0 0.0 0.0 0.0 0.0 0.0 0.0
0.0 0.0 0.0 0.0 0.0 0.0 0.0 0.0
00000000: 0000 0000 0000 0000 0000 0000 0000 0000
00000010: 0000 0000 0000 0000 0000 0000 0000 0000
00000020: 0000 0000 0000 0000 0000 0000 0000 0000
00000030: 0000 0000 0000 0000 0000 0000 0000 0000
00000040: 0000 0000 0000 0000 0000 0000 0000 0000
00000050: 0000 0000 0000 0000 0000 0000 0000 0000
00000060: 0000 0000 0000 0000 0000 0000 0000 0000
00000070: 0000 0000 0000 0000 0000 0000 0000 0000
00000080: 0000 0000 0000 0000 0000 0000 0000 0000
00000090: 0000 0000 0000 0000 0000 0000 0000 0000
000000a0: 0000 0000 0000 0000 0000 0000 0000 0000
000000b0: 0000 0000 0000 0000 0000 0000 0000 0000
000000c0: 0000 0000 0000 0000 0000 0000 0000 0000
000000d0: 0000 0000 0000 0000 0000 0000 0000 0000
000000e0: 0000 0000 0000 0000 0000 0000 0000 0000
000000f0: 0000 0000 0000 0000 0000 0000 0000 0000

batch_norm1.running_var f4 [64]
1.0 1.0 1.0 1.0 1.0 1.0 1.0 1.0
1.0 1.0 1.0 1.0 1.0 1.0 1.0 1.0
1.0 1.0 1.0 1.0 1.0 1.0 1.0 1.0
1.0 1.0 1.0 1.0 1.0 1.0 1.0 1.0
1.0 1.0 1.0 1.0 1.0 1.0 1.0 1.0
1.0 1.0 1.0 1.0 1.0 1.0 1.0 1.0
1.0 1.0 1.0 1.0 1.0 1.0 1.0 1.0
1.0 1.0 1.0 1.0 1.0 1.0 1.0 1.0
00000000: 0000 803f 0000 803f 0000 803f 0000 803f
00000010: 0000 803f 0000 803f 0000 803f 0000 803f
00000020: 0000 803f 0000 803f 0000 803f 0000 803f
00000030: 0000 803f 0000 803f 0000 803f 0000 803f
00000040: 0000 803f 0000 803f 0000 803f 0000 803f
00000050: 0000 803f 0000 803f 0000 803f 0000 803f
00000060: 0000 803f 0000 803f 0000 803f 0000 803f
00000070: 0000 803f 0000 803f 0000 803f 0000 803f
00000080: 0000 803f 0000 803f 0000 803f 0000 803f
00000090: 0000 803f 0000 803f 0000 803f 0000 803f
000000a0: 0000 803f 0000 803f 0000 803f 0000 803f
000000b0: 0000 803f 0000 803f 0000 803f 0000 803f
000000c0: 0000 803f 0000 803f 0000 803f 0000 803f
000000d0: 0000 803f 0000 803f 0000 803f 0000 803f
000000e0: 0000 803f 0000 803f 0000 803f 0000 803f
000000f0: 0000 803f 0000 803f 0000 803f 0000 803f

batch_norm2.weight f4 [32]
1.180368 0.95664513 1.0703747 0.86673164 1.1740816 1.0768931 1.1086206 1.195601
1.1225569 1.165679 1.0258569 1.1909851 0.8756328 1.1022508 1.2031976 1.007482
1.1266679 1.0615336 1.0688871 0.97976995 0.83800197 1.1109469 1.1952736 1.1737249
0.9775521 1.0589379 1.0735482 0.95983577 1.1089267 0.890535 0.94376564 0.92865837
00000000: 4c16 973f b2e6 743f 0a02 893f 20e2 5d3f
00000010: 4e48 963f a2d7 893f 48e7 8d3f 7409 993f
00000020: f2af 8f3f f834 953f 474f 833f 3372 983f
00000030: 7929 603f 8e16 8d3f 6102 9a3f 2cf5 803f
00000040: a736 903f 55e0 873f 4bd1 883f 34d2 7a3f
00000050: 4c87 563f 8233 8e3f bafe 983f 9e3c 963f
00000060: db40 7a3f 478b 873f 076a 893f ccb7 753f
00000070: 4ff1 8d3f 1afa 633f a09a 713f 8ebc 6d3f

batch_norm2.bias f4 [32]
0.19736275 -0.04462848 0.08448264 -0.13486777 0.18959355 0.08049947 0.119179055 0.20351645
0.13448657 0.17973846 0.029992398 0.19890344 -0.12758651 0.12911631 0.21252489 0.01887995
0.13742968 0.073822394 0.08296554 0.010329027 -0.16684788 0.12734765 0.20354171 0.19016269
-0.019323315 0.057676215 0.08466318 -0.04520894 0.12980652 -0.115568765 -0.053403474 -0.053855006
00000000: 7619 4a3e 5acc 36bd 3c05 ad3d c71a 0abe
00000010: d024 423e e8dc a43d 2614 f43d 9e66 503e
00000020: d9b6 093e 5c0d 383e 9eb2 f53c 58ad 4b3e
00000030: 0aa6 02be 1137 043e 20a0 593e 20aa 9a3c
00000040: 5eba 0c3e 3230 973d d6e9 a93d 143b 293c
00000050: 2cda 2abe 6c67 023e 3d6d 503e 02ba 423e
00000060: ee4b 9ebc e53d 6c3d e463 ad3d 022d 39bd
00000070: 00ec 043e 51af ecbd 9abd 5abd 1197 5cbd

batch_norm2.running_mean f4 [32]
0.0 0.0 0.0 0.0 0.0 0.0 0.0 0.0
0.0 0.0 0.0 0.0 0.0 0.0 0.0 0.0
0.0 0.0 0.0 0.0 0.0 0.0 0.0 0.0
0.0 0.0 0.0 0.0 0.0 0.0 0.0 0.0
00000000: 0000 0000 0000 0000 0000 0000 0000 0000
00000010: 0000 0000 0000 0000 0000 0000 0000 0000
00000020: 0000 0000 0000 0000 0000 0000 0000 0000
00000030: 0000 0000 0000 0000 0000 0000 0000 0000
00000040: 0000 0000 0000 0000 0000 0000 0000 0000
00000050: 0000 0000 0000 0000 0000 0000 0000 0000
00000060: 0000 0000 0000 0000 0000 0000 0000 0000
00000070: 0000 0000 0000 0000 0000 0000 0000 0000

batch_norm2.running_var f4 [32]
1.0 1.0 1.0 1.0 1.0 1.0 1.0 1.0
1.0 1.0 1.0 1.0 1.0 1.0 1.0 1.0
1.0 1.0 1.0 1.0 1.0 1.0 1.0 1.0
1.0 1.0 1.0 1.0 1.0 1.0 1.0 1.0
00000000: 0000 803f 0000 803f 0000 803f 0000 803f
00000010: 0000 803f 0000 803f 0000 803f 0000 803f
00000020: 0000 803f 0000 803f 0000 803f 0000 803f
00000030: 0000 803f 0000 803f 0000 803f 0000 803f
00000040: 0000 803f 0000 803f 0000 803f 0000 803f
00000050: 0000 803f 0000 803f 0000 803f 0000 803f
00000060: 0000 803f 0000 803f 0000 803f 0000 803f
00000070: 0000 803f 0000 803f 0000 803f 0000 803f
